models/CartPole-v0_best.pt (torch, 10840 bytes, 4 tensors)

weight f4 [256, 4]
00000000: d91d 8b3e 2e47 debe 6702 5abe 4745 173d
00000010: 0be3 983d 8bc9 05bf a7ea ccbf 8cb5 10bf
00000020: c8d1 c03e 67f2 9e3e 1734 ba3e 3624 51bd
00000030: 3290 78bd 14e4 903e bc8c febe 4135 b93e
00000040: d993 333e cd5a d9be 22dd 8bbf 6974 edbe
00000050: d0a6 8bbe 4b90 bbbc fac9 b3bf 723e 2abf
00000060: 134b dbbd cca7 0a3d 4222 b7be f2ea 3bbe
00000070: 9fac fabd bf6c 423f 56f5 ad3f b80d 223f
00000080: b629 39be ba97 0fbe d73b b1be 4e36 91be
00000090: 9309 bb3e 5d86 ccbe 113d 9fbe 24d9 96be
000000a0: 9048 e3bd 696a a13e 598d 183e b2b1 0f3e
000000b0: fef9 13bf 681c 7b3e f3e4 a33f 1b3d e93e
000000c0: 83af b73d f5da 143e da03 eabe 6b98 8d3d
000000d0: 1823 9e3e 6dd0 5fbe ae27 99be 3bee 0f3e
000000e0: 4cd1 9f3d 2eda 05bf 213c f2bf 50b7 1dbf
000000f0: 1df7 52bf 8b12 aebe 1046 433f 8cce 5c3e
00000100: e15f 2b3e 9c59 053e 763d cb3e 307f 1abe
00000110: 8862 f63e eeaa 2b3f 565e 973f 5630 4a3f
00000120: 204c b73e eee9 9abd a89b edbe 9a0e acbd
00000130: d660 13bf b8c0 4b3e c6e7 9e3f f42c d83e
00000140: 8be2 873e 1985 8dbe eb77 863d 6abb 11bd
00000150: 67f8 c53e c4fb 883c f1c4 d0be c308 6abe
00000160: d782 8bbd 29f2 613e ce44 a5bc 98c1 a63c
00000170: 885b d03d 68ee 94bd 1c12 0abe 108c 1bbd
00000180: 09fc fe3e 1c0e f1be fe95 7d3e bf8d 853d
00000190: 493e 18bf e9ba f6be b76c 463f 938a 023f
000001a0: 857c 793e b78a c4be 30f4 d1bd 8d10 4ebe
000001b0: 8d07 cabe 8460 1b3f 1f12 813f d251 533f
000001c0: f926 0bbf beeb 1cbe bb73 64be 1836 f23e
000001d0: 36bd 8ebc 0cd3 edbd 5864 2fbe 2526 1dbd
000001e0: 9186 6f3e 5859 8bbd e6b5 783d 8cc5 c23d
000001f0: 06a4 cb3e 706f a9bd b936 48bf 79cd 47bf
00000200: 3d59 81be 9bc3 983e 8225 0bbd 4c84 13bd
00000210: 422b 723e 1d93 babc 1792 c13e 647a 80be
00000220: a18f cfbd f489 93be b5f9 d4be 9639 283e
00000230: da5a 87bd 1943 acbe 0981 38be 8603 4bbd
00000240: 3f3d 86bb 6bb7 bc3d ef7c 84bd 9057 ba3d
00000250: 9874 c5be 8a3b 183f a49d dd3e 9ddd 8ebd
00000260: 3d6c aebd 2694 173f bd46 ac3f 01fd 043f
00000270: 9602 ec3e 797f 46be cc82 3cbf a531 c7be
00000280: 401d db3d 804b 8a3c 2523 98be a7c2 993e
00000290: ced5 31be 235b 7f3e 6bb9 d9be 9caa 343e
000002a0: ba6a 1ebe 1d02 10bf 7ccb 9dbf 269f 2dbf
000002b0: a589 45be 9a52 97bd bba0 813e efb7 7cbe
000002c0: 6bc4 df3d c5d3 3bbf 415a a1bf 7ed2 31bf
000002d0: f796 6d3e 96f1 c6bd be41 fbbe 2b57 053e
000002e0: 618f 8b3d 01d7 003d 0707 883e 2307 703e
000002f0: d13d 88be 22ff 54be fe06 ca3e 5dce 983c
00000300: caa0 993d aea3 373f 3d51 be3f a0b2 073f
00000310: de09 513e 24db 053e 390b 6abe 2441 aebd
00000320: da63 d3be ea70 c63e 4178 7ebd aef1 f33c
00000330: f3cf 61bd 9631 12bf c975 e2bf 09c1 26bf
00000340: 2958 2bbd 9eb3 76be 64fa 61be 0402 9abe
00000350: 745a 893d 6020 c7bd 0a4e cbbf d607 70be
00000360: 1d58 ee3e 01e7 353f 84d8 593f c638 493f
00000370: 03c0 49be 1697 c63d f37a e43d 75f8 f3bd
00000380: 802e a1be 65cb f23e 1846 bd3e 6f7b 0ebd
00000390: 4d79 49be 15b1 18be 985c 1c3e 7bdf 12bd
000003a0: add9 f13e 376e 1d3c fad8 ad3f cb9b c13e
000003b0: 8501 b3bd 2a67 18be 053c b4bd c446 703c
000003c0: 6858 18bc a86f bbbe a13a 0bbf cfe4 d5be
000003d0: 0940 94be 0518 333e 2a04 d0be 86f9 c13e
000003e0: d4ad fc3d 98c3 2e3e 1561 2a3e 68d5 28be
000003f0: 8244 c2be 271b e53e 360b 283f 7b80 16bf
0.2717121 -0.4341368 -0.21289979 0.036931302 0.0746518 -0.52260655 -1.600911 -0.5652702
0.3766005 0.31044313 0.36367866 -0.051059924 -0.06068439 0.2829901 -0.49716747 0.36173442
0.17536868 -0.42452088 -1.0926859 -0.46377876 -0.27275705 -0.022895953 -1.4046013 -0.66501534
-0.10707679 0.03385143 -0.35768324 -0.18351343 -0.12239956 0.75947183 1.3590496 0.63302183
-0.18082318 -0.14022723 -0.34615967 -0.28361744 0.36530742 -0.3994626 -0.31101277 -0.2946254
-0.110978246 0.31526497 0.1489767 0.14032629 -0.5780333 0.24522555 1.2804245 0.45554432
0.08969023 0.1453665 -0.45706064 0.06913837 0.3088615 -0.21856852 -0.29913086 0.14055721
0.07803592 -0.5228604 -1.89246 -0.6160784 -0.82408315 -0.33998522 0.7627878 0.21563166
0.16735794 0.13022465 0.39695328 -0.1508758 0.48122048 0.67057693 1.1825664 0.78980005
0.35800266 -0.0756415 -0.4640782 -0.084012225 -0.57569635 0.19897735 1.2414482 0.42221797
0.26540026 -0.27640608 0.06565841 -0.035579123 0.38666078 0.016721614 -0.40775254 -0.22854905
-0.06812065 0.22065033 -0.02017441 0.020355985 0.10173708 -0.07272035 -0.1348347 -0.03797537
0.49801663 -0.47081077 0.24764249 0.065211765 -0.5947004 -0.48189476 0.77509636 0.509927
0.24363907 -0.3838708 -0.10251653 -0.20123501 -0.39458886 0.60694146 1.0083655 0.8254672
-0.5435634 -0.15324304 -0.22309773 0.47306895 -0.017424207 -0.116125196 -0.17128122 -0.038366456
0.23391177 -0.0680415 0.060720347 0.09510335 0.39773577 -0.08273208 -0.782085 -0.780479
-0.25263396 0.29836735 -0.033971317 -0.03601484 0.23649314 -0.022775227 0.3780677 -0.25093377
-0.10134817 -0.28816187 -0.4159676 0.16428217 -0.066091254 -0.3364494 -0.18017973 -0.049563907
-0.0040966566 0.09214672 -0.06469142 0.090987325 -0.38565516 0.5946585 0.43284333 -0.06975863
-0.085167386 0.5921043 1.3459088 0.51948553 0.46095723 -0.19384564 -0.7363708 -0.38905063
0.10698938 0.016881704 -0.29714313 0.3003132 -0.17366716 0.2493711 -0.42524275 0.17643207
-0.154704 -0.56253225 -1.2327724 -0.67820966 -0.19290788 -0.07388802 0.2531794 -0.2467954
0.10926136 -0.7337001 -1.2605668 -0.6946181 0.2320212 -0.097140476 -0.49073595 0.13021533
0.06814457 0.031455044 0.2656786 0.23440222 -0.26609662 -0.2080045 0.3945846 0.01865309
0.07501371 0.7173413 1.4868542 0.53006935 0.2041392 0.13071877 -0.22855844 -0.08508518
-0.41287118 0.38758022 -0.0621264 0.029778328 -0.055129956 -0.5710691 -1.7692195 -0.651383
-0.041832123 -0.24091956 -0.22068173 -0.30079663 0.06706706 -0.09722972 -1.5883191 -0.23440489
0.465516 0.7105561 0.85096 0.78602254 -0.19702153 0.09696786 0.11156263 -0.11912624
-0.3148079 0.47420803 0.3696754 -0.034785684 -0.19675179 -0.14911301 0.15269697 -0.03585766
0.47236386 0.009608797 1.3581841 0.37814173 -0.08740524 -0.14883104 -0.0880051 0.014665309
-0.009298421 -0.36608624 -0.54386336 -0.4177613 -0.28955105 0.17489631 -0.40628177 0.37885684
0.123378426 0.170668 0.16638596 -0.16487658 -0.37942892 0.44747278 0.65642107 -0.58789796

bias f4 [256]
00000000: e638 2c3f 816a 16bf ec5b 2a3f d050 203f
00000010: 7215 d73e bf44 063d e8f5 513f bb6e 023f
00000020: 7761 3f3f e376 813e 2db6 203f 9ef4 06bf
00000030: 4e12 1f3f 7242 0b3f 6a83 10bf cc2d 36bf
00000040: 61fc 553f 538d 78bf 7f7a 4f3f 7aa7 0fbf
00000050: 064d cf3e edb4 1abf 3baf 2c3f 3471 a5be
00000060: d853 f53e 5043 81bf a51c 2b3f e3e0 0dbf
00000070: d583 5fbe 8390 453f e998 2d3f 4e99 8abe
00000080: 63ed 0fbe befe 473f a150 4a3f 7623 233f
00000090: de21 cd3e 1f5f d53e 209d 0c3f daa0 20bf
000000a0: 8a4a 443f 866f 223f 39c5 e9be d536 1f3f
000000b0: fc3f 1ebf 98c7 623f 932f 2c3f 556c 693f
000000c0: a553 02bf 30f1 513f bb81 493f b7a1 26bf
000000d0: 48c6 233f eb67 b63e 2b3e 44bf 7284 f83e
000000e0: 82b6 d33e 929b 2e3f ec0c 45bf b180 e23e
000000f0: 782d 633f 8dc3 303f 0521 5b3f 5621 b23d
00000100: 189c e3be 62fe 2dbf 4f38 363f dd51 46bf
00000110: d76a 11bf 351c 503f 80a2 d6be 646a d03e
00000120: a2dd 10bf 8a61 eabe 96a5 273f c652 d4bd
00000130: 1dfc 30bf 913e 433f ba44 ccbe 9887 2bbf
00000140: 331c f1be 3a19 343f 9569 53bd 81d9 483f
00000150: 67cb 223f dd84 283f 5722 343f 7ecc 203f
00000160: 07e1 1d3f be50 213f b971 083f ebcd 3b3f
00000170: 2b58 843e d831 1abf a667 53bf 56e1 a2be
00000180: 466e 36bf 5929 653f 6ee3 fb3e b701 103b
00000190: 1ec1 ff3e 52d1 19bf c85e 313f e2c3 1c3f
000001a0: 4094 553f 695f 853e 96d5 ed3e 0822 f9be
000001b0: ae04 213f bb6e 58bf d355 2a3f 4489 3b3f
000001c0: b851 383f 61a1 023f fe9a 323f 7140 5f3f
000001d0: 76e8 4a3e 5bd6 f93e 668f 9b3e 583c 2b3f
000001e0: a005 e53e 75d0 28bf c390 0c3f d8a9 543f
000001f0: 0c94 16be 00f4 363f 3adb 473e 64af 3d3e
00000200: f02b e9be 074c f93e be2b d6be f116 3e3f
00000210: 920e e63e a8ca ba3e facc 153f ae7e 113f
00000220: c7b5 093f d45c 17bf 8b17 6c3f 3219 623f
00000230: 008a 42bd 68f8 5d3f 8711 1bbf fe97 493f
00000240: ce5c 433f c64b 503f c65a a83e 060f 483f
00000250: 1c58 383f 42f9 2e3f f96e 59bf b194 2cbf
00000260: 5b80 463f 934f 59bf 8e9a c93e 892e 5e3f
00000270: bf72 08bf 6f57 3abe 94c8 0bbf 8a6c 073f
00000280: 7034 23bf 1a83 5dbd 3155 3a3f dfc0 3cbf
00000290: db77 553e a8ca 1a3f cea3 e4be 33cc 62bd
000002a0: 2947 7b3f 6bc1 d0be dce2 90be 0802 cd3e
000002b0: 9181 0b3f ed01 3b3f 8ea0 d7be d6cd 8fbe
000002c0: 93df 473f 04ff 53bf 789b ed3e be4d ec3e
000002d0: 98db f13e d808 6bbe b58a de3e 7984 e43e
000002e0: 011c fb3e 71c6 2f3f 1edd 1cbf 4f37 123f
000002f0: 088a 1b3f 8dfb 373f 648f 463f d283 ebbe
00000300: 2faf 28be 5df3 5f3f 1cc6 0e3f 34d6 15bf
00000310: 8d78 bd3e 4461 1c3f 36ef 1ebf cf7c 683c
00000320: 4527 3d3f e244 2f3f 4c4a 393f f5e1 d9bd
00000330: a7b7 153e dd1b 4f3f 0639 133f 7c97 183f
00000340: 072a f63e 21ed 50bd 39bd 383f f339 0dbf
00000350: d2c9 2fbe ff58 133f d752 2dbf ff83 203e
00000360: 7f33 323f c959 6d3e ac24 a13e de18 343f
00000370: f141 593f 42c7 b0bd 4152 543f 2fcf d33e
00000380: 67d9 3b3f 2f88 573f 2b69 0d3f bd2a 5f3f
00000390: 185d 573f 196a 883e a632 52bf 2352 573f
000003a0: 6ff7 163f b259 6cbf 259f 123f 7cd0 523f
000003b0: 3d67 533f ffc1 293f d449 4f3f 5df9 22bf
000003c0: 118b 553f 3642 183f 06e5 9f3e 2746 563f
000003d0: 4d85 1c3f 193a cb3e b069 28bf 50cc 9cbe
000003e0: d347 0bbf 9574 e2bd 90af 513f 7be3 b5be
000003f0: 1856 073f ae2a 4c3f c68f 57bf dff0 44bf
0.6727432 -0.5875626 0.6654651 0.6262331 0.4200855 0.032780405 0.8201585 0.5095021
0.74758095 0.25286016 0.6277798 -0.52717006 0.62137306 0.5439826 -0.5645052 -0.7116363
0.83588225 -0.97090644 0.8104629 -0.56114924 0.40488452 -0.6043232 0.6745488 -0.3231293
0.4791553 -1.0098667 0.66840583 -0.55421275 -0.21827634 0.7717363 0.6781145 -0.27070087
-0.140554 0.7812308 0.7902928 0.63725984 0.400649 0.41674134 0.54927254 -0.6274544
0.7667624 0.6345142 -0.4565828 0.6219304 -0.6181638 0.88585806 0.6726009 0.91180927
-0.5090888 0.8200865 0.7871358 -0.6509051 0.6397443 0.35626158 -0.7665736 0.48538548
0.4135018 0.6820613 -0.7697284 0.4423881 0.88741255 0.69048387 0.8559726 0.086977646
-0.44455028 -0.6796628 0.7117967 -0.77468663 -0.5680365 0.8129304 -0.41920853 0.4070617
-0.56588185 -0.4577754 0.6548704 -0.1036735 -0.69134694 0.76267344 -0.39896184 -0.67003775
-0.47091827 0.7035099 -0.051614363 0.78456885 0.6359162 0.65827733 0.703649 0.6281203
0.6167149 0.6301383 0.53298527 0.7336108 0.25848517 -0.60232306 -0.8258003 -0.31812543
-0.71262014 0.89516217 0.49196953 0.0021973678 0.49952024 -0.6008502 0.6928525 0.61236393
0.83429337 0.26049355 0.46452016 -0.48658776 0.62897766 -0.8454396 0.6653721 0.73256326
0.7199969 0.51027495 0.6976775 0.87207705 0.1981524 0.48796353 0.30382842 0.6688895
0.44730854 -0.6594308 0.5490839 0.8307166 -0.14704913 0.71466064 0.19517222 0.18523937
-0.45541334 0.48690817 -0.41830248 0.74253756 0.4493299 0.3648274 0.58515894 0.5683392
0.53792995 -0.5912602 0.92223424 0.88319695 -0.04749489 0.8670716 -0.6057362 0.78747547
0.76313484 0.8136562 0.32881755 0.78147924 0.72009444 0.6834909 -0.84934956 -0.67414385
0.77539605 -0.84887046 0.39375728 0.86789757 -0.5330009 -0.18197416 -0.5460293 0.5289999
-0.6375189 -0.054080106 0.7278624 -0.737318 0.20846502 0.6046548 -0.44656223 -0.05537052
0.98155457 -0.40772566 -0.2829808 0.40040612 0.5449458 0.73049814 -0.4211468 -0.28086728
0.7807552 -0.82811 0.46407676 0.46153063 0.4723785 -0.22952592 0.434652 0.4463232
0.49044803 0.6866217 -0.612749 0.57115644 0.60757494 0.7186821 0.77562547 -0.45999008
-0.16473077 0.8748072 0.5577104 -0.58529973 0.37006035 0.61085916 -0.62083757 0.014189913
0.73888046 0.6846448 0.72378993 -0.10638801 0.14620839 0.8090189 0.57508886 0.59606147
0.4807894 -0.051007394 0.7216373 -0.5516655 -0.17166832 0.5755767 -0.6770453 0.15675353
0.69609827 0.23178782 0.3147329 0.70350444 0.84866244 -0.086317554 0.8293801 0.41369006
0.73378605 0.84192175 0.552386 0.8717459 0.84126425 0.26643446 -0.82108533 0.84109706
0.58971304 -0.92324364 0.57274085 0.8234937 0.82579404 0.6631164 0.8097203 -0.6366175
0.83415323 0.5947603 0.3122942 0.83700794 0.611409 0.39692762 -0.65786266 -0.30624628
-0.5440647 -0.110573925 0.8190851 -0.35525116 0.52865744 0.79752624 -0.84203756 -0.7693004

weight f4 [2, 256]
00000000: 68b6 583e 3c79 8ebf ab6a 8f3e ec1e 7c3e
00000010: 53d6 f2be 3830 b1be ca46 9f3e 0a54 34bf
00000020: bbb9 9c3e 868c 21be 260a a93e f685 68bf
00000030: d92f a43e fad5 dd3d af2d 73bf 3f99 d9be
00000040: 9bf3 833e c8bb 50bf 81ad ae3e 074a 64bf
00000050: 9909 453e 09c4 14bf 54c3 a43e 84a3 12bd
00000060: 6abf efbc acd6 e8be 5985 9e3e c7ea 34bf
00000070: 947d 80bd c887 733e a81b 893e 5613 0cbf
00000080: 0aa3 0d3f a5a2 793e c9db 5d3e cbdf 833e
00000090: d97e 743e f470 7b3e ec4d 2abf b8bd 84bf
000000a0: 84ce 563e aefe 903e d20f 1dbf f7b0 7f3e
000000b0: bcb6 62bf edc6 a83e 6352 8c3e f7d9 773e
000000c0: 7fbc 8cbf 736b 843e f656 b53e cfe3 79bf
000000d0: 6ebe a63e 62d7 b7be 3946 30bf 1a59 c23d
000000e0: d49a 613e 9ece 5e3e 752e 0cbf 8f96 473e
000000f0: 9c70 8e3e 32b0 943e 66a2 433e a64e 5e3d
00000100: 9429 98be 1c61 a2bf 3c87 373e 859d 36be
00000110: 91eb 36bf b817 ad3e 028c 2dbf 0877 2c3e
00000120: 8b94 4fbf a724 24bf d76e 6e3e 4400 d83d
00000130: 594a e0be f8ee b03e 3f3b 3ebf ffdd 97be
00000140: e33f acbe be88 af3e 2ff8 083e 8ba7 8abf
00000150: 9f2c 633e 5121 303e 1a7c 8b3e 880e 803e
00000160: 23db b63e 0a25 883e 34c3 ac3e 7eaa 563e
00000170: 2f09 8c3e 86d6 cfbe d8b5 a9be cb8c 1b3f
00000180: f3d5 ddbe 3030 373e 8283 653e 43c2 eb3e
00000190: 8839 d13d 525e 72bf a066 963e 9f10 673e
000001a0: e96b 423e ef57 bb3d c43e 48bf 40e9 e8bb
000001b0: cf45 6f3e 40bc ebbe db86 6e3e 49b6 983e
000001c0: c86e a73e c0af 403d 44a4 693e ad86 84bf
000001d0: f6c3 8a3e 4c6e 0e3d 07e3 01bd 02f9 263e
000001e0: ab54 703e e43e d4be c85b 393e b92c 8d3e
000001f0: d5ef aabe 82c8 973e 6293 2f3d 053c c23d
00000200: 8886 f4bd 4e3c 953e 850a 07bf 2517 2dbf
00000210: a204 223e 9b56 9b3d d8df 803e 92f6 5d3e
00000220: a6e3 913e 262f 36bf f81c 9b3e 8c9f ad3e
00000230: 0c48 6f3d d152 853e 9c6c b9be 38c7 5c3e
00000240: 6c72 4d3e 8c00 693e 27e6 b03e 6c6d 9f3e
00000250: 446c 8f3e 43b6 343e 5aea a3be 9cf6 04bf
00000260: 3552 a43e 5c6d 2cbf cc73 2e3d 8a4f 6d3e
00000270: 89c2 81be 3be2 57be 501d 5fbf a4d6 313e
00000280: 382c 61bf fa88 b5be 683d 953e b0bc a0be
00000290: 70fb b63e a6e7 943e c4f7 39bf 0bd8 c23d
000002a0: db1d 5f3e b9ea d8be 3163 133f 744f 503b
000002b0: 3d9f 543e 83ca 893e 301e 1dbf 4459 a8be
000002c0: a738 d93d 2dba 33bf ba9e 19bf dd5a 723e
000002d0: 64c4 8c3e f489 85be acbb b73e 5a29 433e
000002e0: dab5 823e 65b2 613e 2271 b0be 625d 843e
000002f0: b3d0 8e3e 93db 833e 06c8 343e 46b3 713d
00000300: bcb6 43bf 5b10 743e 31f5 863e f2ca 69bf
00000310: 0927 a53e d326 2d3e bcf8 33bf 1814 043e
00000320: 779f 993e a518 943e 8456 803e 62e9 dfbe
00000330: 922e 03bf b95e 9a3e 8c6b 803e eb84 243e
00000340: a4a8 8b3e 82e6 3b3e 664a 943e c383 66bf
00000350: 4fb2 f63c c50a 523e 11f6 f1be 72f5 623e
00000360: 5456 a23e b205 a5bd 9621 fc3d 4e89 553e
00000370: 4aec 903e ad96 733d b281 913e 4275 743e
00000380: e1bf 953e 4e24 6c3e b4df 893e c247 b53e
00000390: c920 803e 255f 21bf a56c 0ebf 1c3f 963e
000003a0: 3690 7e3e d1d5 dfbe 7b28 423e fc21 6d3e
000003b0: b8a9 a13e 0c36 a93e 6181 9c3e e5b2 c9bd
000003c0: 613b 993e 4794 5e3e 3ec4 dd3d 1e2b 9e3e
000003d0: 39f6 d63d 40f4 a53e b70f e0be 6305 babe
000003e0: 8afc 67be bd63 d63d d53f 8b3e 4a58 32bf
000003f0: 0de7 9e3e 4f8b 733e 0020 02bf b449 06bf
0.21163332 -1.1130748 0.2801107 0.24621171 -0.4742914 -0.346071 0.31108695 -0.70440733
0.3061045 -0.15776262 0.33015555 -0.9082941 0.32067755 0.108318284 -0.9499158 -0.4249973
0.25771794 -0.8153653 0.34116748 -0.89175457 0.19241942 -0.58111626 0.32180274 -0.035800472
-0.029266078 -0.45476282 0.3096111 -0.7067074 -0.06273952 0.23782265 0.26778913 -0.54717004
0.553269 0.2437845 0.21665873 0.25756678 0.23876514 0.24554807 -0.6652515 -1.0370398
0.20977217 0.28319305 -0.61352265 0.2496985 -0.8856008 0.32964268 0.27406606 0.2420424
-1.0995024 0.25863227 0.35417908 -0.97613233 0.3256716 -0.35906512 -0.6885715 0.09489651
0.22031718 0.21758506 -0.5475839 0.19491027 0.2782029 0.29040676 0.19104919 0.054274224
-0.29719222 -1.2685885 0.17922682 -0.17833526 -0.71453196 0.33807158 -0.6779176 0.16842282
-0.81086034 -0.6411843 0.2328447 0.10546926 -0.43806723 0.3455732 -0.7430915 -0.29661557
-0.33642492 0.34284014 0.13375925 -1.083238 0.2218499 0.17200209 0.2724312 0.25011086
0.35714063 0.2659076 0.33742678 0.20963475 0.27350757 -0.40593356 -0.33146548 0.6076171
-0.43327293 0.17889476 0.22413447 0.46046647 0.10216051 -0.9467517 0.29375172 0.22564934
0.18986477 0.091476314 -0.7822077 -0.0071078837 0.23366474 -0.4604206 0.23293631 0.29826573
0.32701707 0.04704261 0.22816569 -1.03536 0.2710263 0.034773156 -0.03171065 0.16305926
0.23469798 -0.41454232 0.18101418 0.27573183 -0.33386102 0.29645163 0.042865165 0.09484104
-0.11939722 0.2914757 -0.52750427 -0.6761344 0.1582208 0.07584878 0.2517078 0.2167609
0.28493994 -0.7116569 0.3029554 0.33910787 0.05841832 0.26039746 -0.36215675 0.21560371
0.2006318 0.22754115 0.34550592 0.3113817 0.28012288 0.17647652 -0.32014734 -0.51938796
0.3209397 -0.6735437 0.0425909 0.23174873 -0.2534373 -0.21082394 -0.871541 0.17367035
-0.879581 -0.35456067 0.29148412 -0.31393957 0.35738707 0.29082984 -0.72643685 0.09513863
0.21788733 -0.4236658 0.5757323 0.003178564 0.2076387 0.26912317 -0.6137419 -0.32880604
0.10606509 -0.70205957 -0.6000782 0.23667474 0.27493584 -0.26081812 0.3588537 0.19058743
0.25529367 0.22040708 -0.34461313 0.25852495 0.278936 0.2575346 0.17654428 0.05900886
-0.76450706 0.23834364 0.2635894 -0.91325295 0.32256344 0.16909342 -0.70301414 0.1289829
0.30004475 0.28925052 0.25066006 -0.43732744 -0.51242936 0.30150393 0.25082052 0.16066329
0.272771 0.1834965 0.28963012 -0.900448 0.030114321 0.20511921 -0.47258046 0.22163942
0.31706488 -0.08057727 0.123110935 0.20853159 0.28305274 0.059469867 0.28419262 0.23872855
0.29247954 0.23060724 0.26928484 0.3540631 0.25025013 -0.63035804 -0.5563453 0.29345024
0.248597 -0.43717816 0.18960755 0.23157495 0.31574798 0.33049047 0.30567458 -0.098485745
0.29928115 0.21736251 0.10828446 0.3089227 0.10496182 0.3241291 -0.4376199 -0.36332235
-0.2265493 0.10468242 0.27197137 -0.6966597 0.31035653 0.23783611 -0.5083008 -0.5245621

bias f4 [2]
00000000: 36c3 963e ba39 773e
0.2944581 0.24143115
