models/CartPole-v1_best.pt (torch, 10840 bytes, 4 tensors)

weight f4 [256, 4]
000000 34 48 ee 3e 80 f6 d9 be 1c 2e 74 3e 20 0d 18 bd
       0.46539462 -0.42570877 0.23845714 -0.037121892
000010 4e 0c b4 be 3a 26 9c 3e 8c 51 39 be ba b8 e5 3e
       -0.35165638 0.30497915 -0.18097514 0.44867498
000020 00 fd bd bb c0 3e 81 3d 48 4a 5d 3e 1c e8 e2 3e
       -0.005797982 0.06310797 0.21610367 0.4431771
000030 aa b2 8d 3e c0 86 ed 3e b4 37 9f be be 3b bf be
       0.27675372 0.4639187 -0.31097186 -0.37350267
000040 08 73 f9 3e 4e 0c a1 3e 00 57 45 3e 1e 71 96 3e
       0.48720574 0.314547 0.19271469 0.29383177
000050 28 49 d3 be ec 36 fc 3e 58 33 f1 3e 00 9c 52 bb
       -0.4126675 0.49260652 0.47109485 -0.003213644
000060 68 47 fc bd b0 8a 4c 3d 50 d7 c5 bd f4 48 e1 be
       -0.12318307 0.04993695 -0.09660208 -0.4400097
000070 0a 9a e4 be 28 31 ea 3e 78 d1 bc 3d e0 91 96 3d
       -0.44648772 0.45740628 0.092196405 0.07352042
000080 f8 2b 2f be 32 f3 ea be 60 31 fe be ae 7b dd 3e
       -0.17106616 -0.45888668 -0.49647045 0.43258423
000090 ec 17 b5 be 88 d1 92 3e b8 a8 96 3e cc b4 a3 3e
       -0.35369813 0.28675485 0.29425597 0.31973875
0000a0 00 3b 90 bd 20 a2 b6 bc 10 b0 3d be 8c 4c 98 3e
       -0.07042503 -0.022294104 -0.18524194 0.297459
0000b0 5e 47 a9 be 82 18 f6 3e d8 e0 55 3e 42 20 d2 be
       -0.3306226 0.48065573 0.20886552 -0.41040236
0000c0 6c f3 b0 be bc fa ef 3e 36 16 b8 3e 48 3b f9 3e
       -0.34560716 0.46870983 0.35954446 0.4867804
0000d0 d8 5a 85 bd e4 75 85 3e 8c cc df be 52 b7 ec be
       -0.06511468 0.26066506 -0.43710744 -0.46233612
0000e0 44 14 bd be 62 86 bb 3e 66 27 c3 be 00 14 cd 3d
       -0.36929524 0.36625963 -0.38115996 0.1001358
0000f0 6c 30 fc 3e 58 b0 d5 bd d8 99 92 3d 28 40 87 3d
       0.49255693 -0.104340255 0.071582496 0.06604034
000100 c0 fa 48 bd 50 cd c8 bd c0 11 00 bc a0 9b b3 bd
       -0.04906726 -0.09804785 -0.007816732 -0.087699175
000110 60 c9 df be 38 0b 80 bd 22 b4 a3 3e 60 69 af bc
       -0.43708324 -0.0625214 0.31973368 -0.021412551
000120 34 51 ee 3e 34 db fd be d4 e0 a3 be b0 3d 35 3d
       0.46546328 -0.495813 -0.32007468 0.044248283
000130 5a 86 ce be 40 c1 40 3e e0 10 d2 3e ac 9d 36 3e
       -0.40336877 0.18823719 0.410285 0.17833585
000140 70 17 0d bd 10 20 17 be 0c 75 44 be 02 f5 de be
       -0.03444618 -0.14758325 -0.19185275 -0.435463
000150 c4 f7 b0 be 8c d9 02 be a4 67 c3 be 06 b8 c1 be
       -0.3456403 -0.127783 -0.3816501 -0.3783571
000160 e4 cb f7 be c4 60 f9 3e 5e a3 ef 3e d0 f7 40 3d
       -0.48397744 0.4870664 0.46804327 0.047111332
000170 b8 1a ea 3e 3a 3a df 3e 16 a5 a0 be 30 5a b4 be
       0.4572351 0.4359911 -0.3137595 -0.35225058
000180 b4 92 81 3e 84 df a0 be 72 3e be be 2e 55 b0 3e
       0.25307238 -0.3142053 -0.37157017 0.34439987
000190 a6 41 af be 30 3c b3 3e 20 96 e3 3e 9a 96 95 be
       -0.34229773 0.35006857 0.44450474 -0.29216462
0001a0 f0 52 d9 be 58 37 73 be 30 cf fb 3e 80 7f ab 3e
       -0.4244609 -0.2375158 0.4918151 0.33495712
0001b0 7a b8 94 be ac be 3c 3e 40 36 a1 3c 30 b0 48 3d
       -0.29046994 0.1843211 0.019679189 0.04899615
0001c0 a4 7b f8 be 86 7e bd 3e 10 38 1a 3e 6e f6 a2 3e
       -0.4853183 0.37010592 0.15060449 0.31828636
0001d0 00 38 b8 b9 d0 13 26 3d 04 be 01 be 30 7e be bd
       -0.00035136938 0.04054624 -0.12670141 -0.09301412
0001e0 a0 6b 20 bd 8c c0 e9 be 82 82 85 be 5c 93 7a be
       -0.03916514 -0.45654714 -0.26076132 -0.24470276
0001f0 22 7f d9 3e ac 55 92 3e f4 0c b9 be 66 b1 89 be
       0.42479807 0.28580987 -0.36142695 -0.26893157
000200 38 e4 63 be d8 83 36 be 40 4c ae bd b8 5b ef bd
       -0.22255027 -0.17823732 -0.08510637 -0.11687416
000210 88 24 0b 3e dc 63 6a be 66 fb 9b 3e 18 d2 c3 3e
       0.13588154 -0.22889656 0.3046524 0.38246226
000220 c0 a8 00 3d c8 7a ed be fa e8 fd 3e c6 d3 e8 be
       0.031410933 -0.46382737 0.4959181 -0.4547407
000230 b4 08 b7 3e 7c 6c a1 3e 10 fb 4f 3e 08 1f c8 be
       0.35748827 0.3152808 0.20310616 -0.39086175
000240 a8 83 ea be 40 6d 14 3c bc b3 87 be 98 fd 07 3e
       -0.4580357 0.00905925 -0.26504314 0.13280332
000250 18 a4 9e be a8 22 b4 3e ec be 3c be 20 90 de bc
       -0.3098457 0.3518269 -0.18432206 -0.027168334
000260 20 75 9b 3e 9e 4a a6 3e b0 50 05 be bc a2 61 3e
       0.30362797 0.32478803 -0.13019061 0.22034734
000270 26 58 be be 68 03 b4 3d 9a 26 a6 3e 12 ec e8 be
       -0.37176627 0.08789712 0.32451326 -0.45492607
000280 de d8 bd 3e 34 84 69 3e de e5 8f 3e 5c 8b 07 3e
       0.3707952 0.22804338 0.28105062 0.13236755
000290 64 ff 83 be 04 34 17 be 10 3a 11 bd 6a e3 bd 3e
       -0.25780785 -0.14765936 -0.035455763 0.37087566
0002a0 2c d4 9c be 98 b7 37 3e 80 99 98 bd 00 9a 61 3d
       -0.30630624 0.17941129 -0.07451153 0.055078506
0002b0 26 e1 f9 be 38 16 1c be 60 cf 3d 3e f0 bb 07 bd
       -0.48804587 -0.15242851 0.18536139 -0.033138216
0002c0 70 02 95 3e 3c 6a 18 be 9a 09 d0 3e dc ca 8a be
       0.29103422 -0.14884275 0.40632325 -0.27107894
0002d0 ac 4f 33 be 84 72 97 be de 3a f4 3e c0 f4 54 3e
       -0.17510861 -0.29579556 0.47701162 0.2079649
0002e0 e4 44 80 3e d4 4d ac be 94 b1 43 be 94 af 02 be
       0.2505256 -0.33653128 -0.1911071 -0.1276229
0002f0 70 7d 23 be 84 24 92 3e 80 0d e6 3e 56 26 b8 be
       -0.1596582 0.28543484 0.44932175 -0.35966748
000300 f2 b2 d3 3e 86 82 c5 3e c0 ed 8b be 50 ba 2c 3e
       0.41347462 0.38576144 -0.27329826 0.16867948
000310 e2 2b e4 be e4 fb 17 be ba c4 d9 3e 06 c6 ff 3e
       -0.4456473 -0.14842182 0.42532903 0.49955767
000320 94 6b 3d be d2 32 f3 3e 9e 59 99 3e 00 7a 99 3e
       -0.18498069 0.4749971 0.29951185 0.2997589
000330 0a a5 a2 be c4 e1 55 3e 66 ea ed 3e 60 a6 d0 3c
       -0.3176654 0.20886904 0.46467894 0.025469959
000340 fe 2c 95 3e 74 37 7d 3e b0 d8 10 be 94 17 c9 be
       0.2913589 0.24728185 -0.1414516 -0.392758
000350 14 6c 69 be c0 18 83 3e c0 45 c6 be 30 d7 15 be
       -0.22795135 0.2560482 -0.3872509 -0.14632869
000360 8a f3 84 be ee 5a 9c be b4 30 b6 3e 04 64 cb 3e
       -0.25967056 -0.30538124 0.35584033 0.39724743
000370 40 76 85 3e c0 40 49 3e 5a b2 f9 be 04 fc 2b be
       0.2606678 0.19653606 -0.48768884 -0.16795355
000380 60 02 52 bd 40 5c 3f bc 5c e1 42 be 94 42 98 3e
       -0.051271796 -0.011679709 -0.1903128 0.29738295
000390 c0 94 54 3e 28 3a f4 be a0 14 88 bd f0 80 3f 3d
       0.20759869 -0.4770062 -0.06644559 0.046753824
0003a0 a2 1f a9 be 20 d9 9f be 3c 6f 6c be 44 32 38 3e
       -0.33031946 -0.3122034 -0.23089308 0.17987925
0003b0 4c 73 5c 3e b8 80 d9 3d 64 fe 92 3e dc 92 eb be
       0.21528357 0.10620254 0.2870971 -0.46010482
0003c0 80 97 80 3d e6 1b 8d be 50 0a 01 bd 60 06 c3 be
       0.06278896 -0.27560347 -0.031503975 -0.380908
0003d0 90 ba b6 be 88 49 4c 3e 20 c1 67 bd 84 d2 2c be
       -0.3568921 0.19949925 -0.056580663 -0.1687718
0003e0 40 09 3d bc 7a 61 f8 3e 60 8e b8 3c 10 2b 59 be
       -0.01153785 0.4851187 0.022528827 -0.21207833
0003f0 82 e1 a8 be 00 aa aa be 0a 29 a7 3e f8 92 52 be
       -0.3298455 -0.33332825 0.32648498 -0.20563877

bias f4 [256]
000000 c8 99 25 3e f4 77 13 3e dc 1d 62 3e a0 2a d0 bc
       0.16171944 0.14401227 0.22081703 -0.02541095
000010 92 84 b0 3e 44 fd 10 3e 48 88 02 3e 90 5a 83 3e
       0.34476143 0.14159113 0.127473 0.2565503
000020 b0 22 f8 3d 10 a3 dc 3e 84 34 00 3e 1c 8e f0 3e
       0.12115991 0.43093157 0.12520033 0.4698342
000030 44 58 6e be c0 28 ad 3e 00 84 1f 3d 5c d8 0b be
       -0.23275858 0.33820152 0.038944244 -0.13656753
000040 30 14 f1 bd aa 13 80 be e0 1d 69 bd 28 6b f2 3d
       -0.117714286 -0.25015002 -0.056913257 0.11836845
000050 e8 f0 c3 3e ac ed 26 3e 6c 25 74 3e e6 ed 95 3e
       0.38269734 0.16301602 0.238424 0.29283065
000060 50 c4 21 be 8a 97 9e 3e dc e7 e2 be d4 21 db be
       -0.15797544 0.3097499 -0.4431752 -0.42799246
000070 60 3f ac bd 8c 59 ad 3e f4 17 35 be d0 87 db bd
       -0.08410525 0.3385738 -0.17684919 -0.107192636
000080 a6 d5 c6 be 9c fb d9 3e 0a ee ba 3e f0 c3 e1 be
       -0.38834876 0.42574775 0.36509734 -0.440948
000090 90 b9 3d be 52 3f 8e 3e 18 39 a4 bd c0 37 59 bd
       -0.18527818 0.27782685 -0.08018702 -0.053031683
0000a0 6c 98 7b be 10 ea 03 3d 72 06 cc be 28 f9 99 be
       -0.24569863 0.03220564 -0.39848667 -0.30072904
0000b0 d8 8c b7 be 74 2e ba be 02 c1 aa be 06 fb f1 be
       -0.35849643 -0.36363566 -0.33350378 -0.47261828
0000c0 ee d3 d8 be 48 d5 47 3e bc a4 16 3e 80 ae 07 3c
       -0.4234919 0.19514954 0.14711279 0.00828135
0000d0 a0 6c d6 bd c0 19 13 bc 08 bc 49 be 90 f3 c1 bd
       -0.10469937 -0.008978307 -0.19700634 -0.09470284
0000e0 0e 6b fe be f8 eb d2 3d f4 2e 10 be 72 13 f9 3e
       -0.4969105 0.10298914 -0.14080411 0.48647648
0000f0 b8 1c d1 bd 00 8b c2 3b 20 12 72 bd 54 c4 67 be
       -0.10210556 0.0059369802 -0.059099317 -0.22633487
000100 c4 28 a6 be 10 81 3d 3d 14 46 b9 be 00 c6 4d be
       -0.32452977 0.04626566 -0.36186278 -0.20095062
000110 14 03 3a 3e 00 c4 47 ba 38 87 e2 be c8 eb 14 be
       0.18165237 -0.0007620454 -0.4424379 -0.14543068
000120 90 9d 1d 3e 90 26 eb 3d 4e e3 ea be 2a 6c e7 3e
       0.15392137 0.114819646 -0.45876545 0.4519971
000130 a4 0c 18 be 20 2b 50 bd d4 d6 64 3e 90 d0 16 bd
       -0.14848572 -0.050822377 0.22347575 -0.036819994
000140 e4 e9 31 be 18 48 53 be 04 58 4f 3e 88 2c 48 3e
       -0.17374378 -0.2063297 0.20248419 0.19548237
000150 30 a6 45 bd c8 54 84 3d 58 62 85 3e b0 fc fa be
       -0.048254192 0.06461483 0.26051593 -0.4902091
000160 7c 52 16 3e f0 d5 8d bd 94 c8 e8 be c0 69 89 bc
       0.14679903 -0.06925571 -0.4546553 -0.016774058
000170 e0 5a 5e 3d 6c e9 61 be 2c d1 c2 3e 90 dc 7b 3e
       0.054285884 -0.220617 0.3805021 0.24595857
000180 b2 69 de be f2 8f 84 3e 2c 7b 97 3e 80 60 5e be
       -0.43440014 0.25891072 0.2958616 -0.217165
000190 c4 cc cf be 20 0a ba 3c fc ef e0 be d8 66 1a 3e
       -0.4058591 0.022709906 -0.43933094 0.15078294
0001a0 5a 46 9d be 3c 24 7c be f8 c6 a1 3d 66 52 cc be
       -0.30717736 -0.24623197 0.078992784 -0.39906615
0001b0 98 04 e4 3e 60 57 00 bd dc 5e 2e 3e a0 56 95 3d
       0.44534755 -0.031333327 0.17028373 0.07291913
0001c0 3a 4c c2 be a0 6b 04 3e 10 e8 df 3e a0 08 33 bd
       -0.3794878 0.1293168 0.43731737 -0.043709397
0001d0 80 bc eb 3b 8c ba dc 3e 64 4c 87 3e 16 04 b1 3e
       0.007194102 0.43111074 0.2642547 0.3457343
0001e0 2c aa 59 be 5c 97 57 3e 00 fe 27 bd a6 75 c4 3e
       -0.21256322 0.21053833 -0.041013718 0.3837101
0001f0 c0 43 d7 3c 42 e3 cb 3e fa e9 ea 3e 8c 41 12 3e
       0.026277423 0.3982182 0.45881635 0.14282817
000200 84 fc a6 3e 6c 0e 89 be a2 57 a6 3e 40 44 d3 bc
       0.3261453 -0.26768816 0.32488734 -0.02578938
000210 d8 2f 6d 3e 42 6a d5 3e 04 e7 43 3e 88 e0 39 3e
       0.23162782 0.4168263 0.19131094 0.18152058
000220 98 dc c7 3e 22 dc db 3e 18 ee 82 be 9c ca cd be
       0.39035487 0.42941386 -0.25572276 -0.4019364
000230 c2 4e da 3e b8 d0 c3 bd 68 60 1f be 10 08 65 3e
       0.42638212 -0.09561294 -0.1556412 0.22366357
000240 40 94 58 3c 10 51 e5 be 9a 0a b5 3e ec 9e 95 be
       0.013218939 -0.44788408 0.3535965 -0.2922281
000250 30 f6 79 bd 1c 4e 22 3e 20 44 47 3d f8 2b 6c be
       -0.0610258 0.15850109 0.048648953 -0.23063648
000260 c0 78 75 bd b8 98 9d 3e 00 19 87 be 24 d4 bf 3e
       -0.05992961 0.30780578 -0.2638626 0.37466538
000270 b6 00 a2 be b0 0d 4c 3e 52 37 91 3e b4 3e 21 be
       -0.31641167 0.19927096 0.2836252 -0.15746576
000280 80 a2 bd bc 90 ef 6d 3e 96 c4 98 be 76 4f 9f 3e
       -0.023148775 0.23235917 -0.29837483 0.3111531
000290 e0 45 20 3e b0 96 7e 3e b0 a6 1c bd 02 32 8e be
       0.15651655 0.2486217 -0.038244903 -0.27772528
0002a0 b4 7b 5f be d8 1d 49 3e 30 8a b8 be c4 6b a4 be
       -0.21824533 0.1964029 -0.3604293 -0.3211347
0002b0 78 da eb 3e cc b4 af 3e 88 88 ef be 6a da d8 be
       0.46065116 0.34317625 -0.46783853 -0.42354137
0002c0 38 fb 70 be bc 47 4a 3e be 8b 9b be 90 42 c7 bd
       -0.23533332 0.19753927 -0.30380052 -0.09729493
0002d0 4c 07 f8 be 9c da d8 3e 0a 8f 96 3e 00 c5 64 bc
       -0.48443067 0.42354286 0.29406005 -0.013962984
0002e0 ac 08 3f be 1e c8 97 3e 82 50 83 be 58 c2 54 be
       -0.18655652 0.29644865 -0.2564736 -0.20777261
0002f0 94 80 cd 3e f8 09 c6 bd f6 50 b6 be c8 d7 9c be
       0.4013716 -0.0966987 -0.35608643 -0.30633378
000300 5c e4 ca be f8 54 db be 60 5c 90 bd 58 0c d5 be
       -0.3962735 -0.42838264 -0.07048869 -0.4161098
000310 44 ad 60 be 00 00 2c 37 3c a0 cc be 40 b7 51 bc
       -0.21941096 1.0251999e-05 -0.39966 -0.012800038
000320 c0 2f 08 3d 70 12 3e bd 86 05 ec 3e 9c e6 5c be
       0.033248663 -0.046404302 0.46097964 -0.21572345
000330 a0 d0 5d 3d 3e 54 e1 3e bc 39 b5 be 84 ff 7f be
       0.05415404 0.44009584 -0.3539561 -0.24999815
000340 00 90 6b ba 18 76 ad bd 7c 3c 63 3e 1c 49 5e be
       -0.0008985996 -0.0846979 0.22191042 -0.21707577
000350 c8 9e 31 3e 0c 20 f0 3e 08 9f 83 3d b0 9e ac 3e
       0.17345726 0.4689945 0.06426817 0.3371482
000360 e2 2e fd 3e 54 f7 91 3e c4 c0 4f be 60 0d 0c 3e
       0.4944983 0.2850901 -0.20288378 0.13676977
000370 46 29 d0 be 00 c9 7e be 60 82 95 3d d8 8b d7 bd
       -0.4065649 -0.24881363 0.07300258 -0.1052472
000380 ee 2a c4 3e 70 19 b5 3d 20 d6 60 3e 00 cf b0 3d
       0.38314003 0.088427424 0.21956682 0.08633232
000390 40 17 27 be 50 cd 4f bd 38 c3 b5 3d 80 b8 87 be
       -0.16317463 -0.05073291 0.08875126 -0.2650795
0003a0 b8 1f dd bd f0 28 04 be b0 3f 94 3d e8 14 59 be
       -0.107970655 -0.12906241 0.0723871 -0.21199381
0003b0 30 28 10 be 74 83 dc be 1e 97 fe 3e b4 48 69 3e
       -0.1407783 -0.4306904 0.49724668 0.2278164
0003c0 cc 6b d8 3e 82 59 b0 3e 10 71 1e bd 80 37 05 3d
       0.42269742 0.3444329 -0.038682044 0.032523632
0003d0 9a ed ea be 98 f0 c5 3e d0 94 50 3d 0a 99 b1 3e
       -0.458844 0.3866012 0.05092317 0.34687072
0003e0 48 f4 d6 3e e6 db 86 3e f6 03 b3 3e 10 cb 59 bd
       0.41983247 0.26339644 0.3496396 -0.05317217
0003f0 ec e1 3e be dc 98 7a be 80 b9 e9 bd 80 6c a4 be
       -0.1864087 -0.24472374 -0.114123344 -0.3211403

weight f4 [2, 256]
000000 f0 3d a7 bb 48 3e 58 bd 90 3e 4e 3c 40 d2 c7 3b
       -0.005103819 -0.05279377 0.012588158 0.006098062
000010 76 ee 78 3d 3e 1f 2f 3d ce 09 76 bd 04 a7 e2 bc
       0.06077429 0.042754404 -0.060067944 -0.02766753
000020 e8 c5 7a bd 00 b4 bf 3c 84 f6 d5 bc e6 4c 7b 3d
       -0.061223894 0.02340126 -0.026118524 0.061352633
000030 14 23 67 3d 7c fc 39 bd 00 60 24 bc 40 81 28 3b
       0.056429937 -0.045406803 -0.010032654 0.0025711805
000040 00 d0 61 bc d6 6a 11 3d 24 aa df 3c 80 3b 5e bd
       -0.013782501 0.035502277 0.027302809 -0.054255962
000050 ea d0 10 3d 8c bb 2e bd 52 53 4c 3d 34 4d 94 bc
       0.035355486 -0.042659327 0.049884148 -0.01810322
000060 0a fd 12 3d 00 96 38 3a 10 c6 e3 3b 58 6a 30 3d
       0.035885848 0.0007041395 0.006951101 0.043070167
000070 70 ef 54 3d 28 1b 5b bd 68 ff 73 bd 7c 9f ff bc
       0.051986158 -0.053492695 -0.059569746 -0.031203978
000080 82 9f 37 3d 40 51 71 bd d0 bd e2 bb 84 c6 84 3c
       0.044829853 -0.058915377 -0.0069196 0.01620794
000090 c6 73 0f bd 60 15 f1 bc c0 c3 53 bc 14 44 8e bc
       -0.03502252 -0.029429138 -0.012925088 -0.017366447
0000a0 d0 03 c6 bc 90 e0 9e bb c0 21 53 3d c0 bb a6 bc
       -0.02417174 -0.0048485473 0.05154586 -0.020353198
0000b0 70 10 c0 bc 60 1b 53 3b e6 87 49 3d 44 79 ef 3c
       -0.023445338 0.0032212362 0.04920187 0.029232629
0000c0 00 7b ab 3c f0 17 f5 bb e0 51 3a bb 2a 04 76 3d
       0.020932674 -0.00747966 -0.002843015 0.060062565
0000d0 44 6c a6 3c 44 3a f6 bc 68 ea 65 3d 08 43 2e bc
       0.020315297 -0.03005708 0.05613175 -0.010636099
0000e0 b0 54 8a 3c 50 28 ea bc b0 e4 02 bd 8c 64 43 bd
       0.016886085 -0.028583676 -0.031956375 -0.04770331
0000f0 c8 01 09 3c b4 ff 09 bd 88 53 2c bc 5c b2 62 bd
       0.008362241 -0.033691123 -0.010517962 -0.055345878
000100 ae c7 7f bd f8 e9 dc bc c0 5b df 3a bc 23 b8 bc
       -0.06244629 -0.026967034 0.0017040893 -0.022477977
000110 14 32 e4 3c 30 d3 aa bc 98 50 74 3c 3a f9 63 bd
       0.02785591 -0.020852655 0.014911793 -0.055657603
000120 94 94 0d bd 0c 3a 61 3d c0 72 8a 3b b4 23 1a bd
       -0.034565523 0.054987 0.004225105 -0.037631705
000130 76 6a 13 bd 80 7e 0f bb d8 8f 65 3d 2e 1e 6b bd
       -0.0359902 -0.0021895468 0.056045383 -0.05740183
000140 28 3f 8a bc 66 25 30 bd 56 f4 14 bd bc 53 b0 3c
       -0.016875818 -0.043004416 -0.03636583 0.021524303
000150 b0 c0 52 bc 60 eb 34 bc 5e b9 34 bd 2e e4 6f 3d
       -0.012863323 -0.011042446 -0.044122092 0.05856722
000160 84 9f ae 3c 00 0c 6a 3d 40 3f 4a bb ec 20 76 bd
       0.021316297 0.05714035 -0.0030860454 -0.06008999
000170 90 19 f2 3c 48 ff 4e bc 40 f9 22 bb 10 6a b6 bb
       0.029553205 -0.012634106 -0.0024867803 -0.005566843
000180 b6 ba 39 bd 90 c9 d0 3c 4c ee 7c bd e8 e6 b9 bc
       -0.045344077 0.025486737 -0.061750695 -0.022693112
000190 60 9f 35 bb d0 61 7a 3c 80 83 d0 3c 00 9e 43 ba
       -0.0027713403 0.015282109 0.02545333 -0.00074622035
0001a0 d4 a5 12 bd 14 42 76 3d 38 ef 2a bc c2 33 32 bd
       -0.035802677 0.06012161 -0.010433011 -0.04350639
0001b0 22 db 42 bd 60 13 bc bc f4 81 b1 3c 04 e0 88 3c
       -0.047572263 -0.022958457 0.021668412 0.016708381
0001c0 d0 cd f4 bc 08 1b 59 3d de 3f 37 bd cc 1f 92 bc
       -0.029883295 0.053004295 -0.044738643 -0.017837428
0001d0 42 26 24 bd 20 dd 2a bc 34 d5 b0 bc 34 bb 5d 3d
       -0.040075548 -0.010428697 -0.021586038 0.05413361
0001e0 e0 e6 02 3c 5a 49 59 3d 14 c6 a4 3c 72 3c 7b bd
       0.007989615 0.05304847 0.020113982 -0.061336942
0001f0 1e 4d 71 3d 3c 22 39 bd 1c 22 76 3d aa 72 31 3d
       0.058911435 -0.045198664 0.060091123 0.043322243
000200 b0 ca f7 3b a0 74 44 3d e8 18 7a 3c 8e f0 36 3d
       0.007562004 0.047962785 0.015264727 0.044663005
000210 00 50 7f bd 62 4b 79 bd 9c 68 2a bd ba 91 41 3d
       -0.062332153 -0.060862906 -0.04160367 0.047258116
000220 8e 0c 23 3d 22 d1 1a bd b6 2a 45 bd 80 2d f7 3c
       0.039806895 -0.0377971 -0.048136435 0.030173063
000230 c0 90 91 bb 54 87 83 bc 20 63 b2 bb ec 85 e3 3c
       -0.0044423044 -0.01605574 -0.0054439455 0.02777382
000240 32 f1 1e bd a4 06 cd 3c 94 65 0c bd 06 e4 4e 3d
       -0.03880424 0.02502758 -0.03427656 0.05051043
000250 24 61 3f bd 9c 60 e7 3c e8 4e b9 bc c8 ae 5f 3c
       -0.0467235 0.02824431 -0.022620633 0.013652511
000260 24 13 b6 3c e0 6e 4d bb 20 8a e6 3b 18 42 1b bd
       0.022225924 -0.0031346604 0.0070355088 -0.03790483
000270 24 2b a1 bc 68 31 d2 bc fe a7 48 3d ac 24 27 3d
       -0.019673891 -0.025658324 0.048988335 0.040806457
000280 18 4c d8 3c 38 88 26 3d a8 68 74 3c f8 0f 42 3d
       0.026403472 0.040657252 0.01491753 0.04737851
000290 80 04 eb bc 50 54 0b bc dc 8c c8 bc 2c 39 9f bc
       -0.02868867 -0.008503988 -0.02448123 -0.019436441
0002a0 18 bd d4 bc a8 eb 50 3c 98 93 f7 3c 8c a4 41 3d
       -0.025969073 0.012751497 0.030221745 0.047276065
0002b0 a8 02 b2 3c 10 d5 c2 3b 98 8f 6e bc dc 1a 52 bd
       0.021729782 0.005945809 -0.014560603 -0.051295146
0002c0 b2 b2 00 3d ec 17 bf 3c a8 e2 a3 3c 08 d0 5e bd
       0.031420417 0.023326837 0.020005539 -0.054397613
0002d0 46 35 0b 3d 74 da 58 3d dc 5e fd bc 64 40 6f 3d
       0.033986352 0.052942708 -0.030929022 0.058411017
0002e0 b0 03 ca bb 80 de 28 ba d6 ac 0a 3d 20 93 65 3d
       -0.0061649904 -0.00064418465 0.033856235 0.056048512
0002f0 ec 51 df bc b4 3c 4c 3d 18 e2 c3 bc 00 9a 8f bb
       -0.027260743 0.04986258 -0.02391152 -0.004382372
000300 d6 0c 61 3d 92 44 04 bd 56 63 41 bd fe cb 7a 3d
       0.054943882 -0.032291956 -0.047213875 0.0612297
000310 40 e9 36 bb 68 c5 41 bd 62 af 49 3d a0 61 44 3c
       -0.0027910024 -0.047307402 0.049239524 0.011986166
000320 14 d1 40 bd 34 7b 37 bd 78 7a e1 3c dc 72 bf bc
       -0.047074392 -0.04479523 0.027524218 -0.023370199
000330 34 ab f6 bc 50 83 b5 bc 78 ca 45 3d 80 12 e3 3a
       -0.030110933 -0.022157341 0.048288792 0.0017324239
000340 ec d9 03 bd 00 4d d1 bb a8 bf 0d bd 90 d8 fe 3c
       -0.03219025 -0.006387353 -0.034606606 0.031109124
000350 f0 ef 20 bd 30 20 33 bd 9c d5 98 3c 2a b3 4f bd
       -0.039291322 -0.04373187 0.018656544 -0.050707974
000360 c6 e7 69 3d ee 30 59 bd 68 e3 37 bd e8 db 7c 3c
       0.057105802 -0.05302518 -0.044894606 0.015433289
000370 f8 4f bf 3c c0 8f ed bb 36 0b 68 bd 80 4f 2f ba
       0.023353562 -0.0072498024 -0.056651317 -0.00066875666
000380 78 6d 9e bc 88 34 70 bc 5c c4 7b 3d 08 65 c6 3c
       -0.019339308 -0.014660962 0.06146656 0.024218097
000390 c0 99 e2 ba 70 13 a4 bb b0 17 7b bd e0 51 46 3d
       -0.0017288253 -0.0050072 -0.061301887 0.048417926
0003a0 90 d0 e1 bb 20 25 c3 3c 80 7d 72 3a 06 5c 4d 3d
       -0.0068913177 0.023821414 0.00092502683 0.05013659
0003b0 78 49 cb 3c 40 84 25 3d e0 4e 1a 3c 80 73 1c 3b
       0.024815306 0.040409327 0.009418219 0.0023872554
0003c0 80 11 42 3a f8 54 33 bd 10 ef 34 bd a0 09 93 bc
       0.00074031204 -0.043782204 -0.0441733 -0.017948925
0003d0 68 07 b1 bc 20 c4 6f 3d 64 a5 3d bd 80 82 50 3b
       -0.021609977 0.05853665 -0.046300307 0.0031816065
0003e0 a0 f9 c0 bc bc 29 1c bd a0 cf 74 3c 38 7c f8 3c
       -0.02355653 -0.03812574 0.01494208 0.03033267
0003f0 00 98 e0 bb 04 65 3e 3d 40 e4 86 3a e0 bf 65 bc
       -0.0068540573 0.046483055 0.0010291412 -0.014022797

bias f4 [2]
000000 f8 b7 ea 3c 38 7c 75 3d
       0.028652176 0.059932917
