models/CartPole-v1_best_None.pt (torch, 10880 bytes, 4 tensors)

weight f4 [256, 4]
00000000: 4f77 aebe d2f6 a13e 6e18 523e 1065 273c
00000010: e90a 943e e82e 01be e654 fe3e 623a c7bb
00000020: abd7 243b 7733 823e 3ed1 183f ed50 b03e
00000030: becc bcbe 0f7a d73e beb1 133f 3939 1b3e
00000040: 3b74 0d3f 9df5 0a3f e5ef 22bd c229 8c3e
00000050: 1ee4 78be feef 4f3e 9d94 253f 7cbf f3bc
00000060: 513b 9ebe c3a1 e23d 7977 c33d 2b25 933e
00000070: e57a 7e3e 189a 09bf 3368 0cbf e025 4f3e
00000080: f95b 963e aea5 a9be 2f13 8cbe e436 813e
00000090: 0824 923e 7503 4a3f 02c2 dd3f e4b0 0d3f
000000a0: 051c 593e 9269 a4be 6147 cf3e a951 d13e
000000b0: ec6e bebd c1b7 013f f54d 4ebe 8a39 003f
000000c0: 7064 92be 9e20 013e 80e6 153f 4f49 84bd
000000d0: f0be 81be 63d1 123f a4e2 b83c 7e77 eabe
000000e0: 5876 893e 3309 c6bd b38a 5e3e 3f60 c43d
000000f0: 42fa 493e 1500 133f 31f6 863e 39fb 0f3e
00000100: 89f2 b43e 5fb7 41be 602a 97be 6e7c 803e
00000110: 3190 1bbd 337f b3bc 1daa 1b3f b011 75be
00000120: c5ac 9e3e 8651 08be d8cd e6be 8d42 af3e
00000130: 6eb6 653e 25c3 71be 6c3d d9be 37c3 9b3e
00000140: 4d47 c0bd 5f33 86be 64db 2ebe 09be c5bc
00000150: f55f 9e3e b125 7e3e ad0d 3abe 9cac 8e3d
00000160: 6d0e 473d 8d38 af3e dcca 3fbe a3a2 8e3e
00000170: 10f0 efbd 0dd0 c83e 419a 38be 6e0d fa3d
00000180: 5c6d af3d 3c54 1fbe 618a e83d 1d08 693e
00000190: 5631 fb3e 808c a93e 43f9 0240 b8ec b43e
000001a0: 4846 bdbe 8e16 093e 787d b7bf 468c 16bd
000001b0: 290c 113e 8da0 23be 8ac8 1b3e da05 6ebe
000001c0: 576e 1e3f f1c2 00bf 83c0 a1bf d4fd a5be
000001d0: 5fe0 3ebe ce4c 4bbf 85d3 c1bf ce59 07bf
000001e0: f487 9e3e 980d d73e 168c d83c f3fb 933e
000001f0: fdcb da3d e76e 4c3e f12d c83e e843 c83e
00000200: 2c4f 823e c9e3 93be 7a05 4b3e 31ec 2fbd
00000210: 85cc ee3e 35a5 9f3e 9978 a7bf b35e 90bc
00000220: 2824 083e 6596 7a3c 31bc f53e b914 acbd
00000230: 9c6a 91be 04fb af3e b338 11bd b434 3fbe
00000240: 0120 653e 2a39 6fbd e9a3 263f 8f36 0e3e
00000250: e74d f3be 6ff1 b03e 4196 babd 1505 8e3e
00000260: 1766 753e 114d 55be ab1b f13e 5347 d23d
00000270: db70 0fbe 8526 c83e 4f91 babf ca7e 9fbd
00000280: a831 e7be 2d0e 59bd 33ab 103d ded2 dc3d
00000290: bebd c8be 38de 38be e2ca 533f ffb5 26bd
000002a0: c131 98be 1613 d5be ca75 ecbf 94f1 b9be
000002b0: 2b78 73be fd63 823e 29db ac3d 6c95 c13d
000002c0: e549 ecbe 29b1 08bf 0b2d 8dbf 279a 47bf
000002d0: 7248 073e 241d 643e de52 303f 82f8 72be
000002e0: 40f9 6cbd 2ea8 89be 1cfc 9bbd 3257 bb3d
000002f0: 83ff 55be 3b0c 44bc 9233 033f 7406 0b3e
00000300: 3692 fcbe 8895 153e 02af 1f3f b1f3 3c3e
00000310: 4026 a13d 80d0 d43c 3097 5cbd 8032 25bc
00000320: cae5 cfbd 704a b43e 8f50 263e 8295 d63e
00000330: ff64 d53d d51d c7bc 82ae 973e 9a5e 2bbe
00000340: d549 ddbd bc98 a53e 9fb8 8d3e 1f4c d7bd
00000350: f700 8a3e 2ce6 cfbd e4ce 213f 2118 9bbe
00000360: e954 40be 8192 563c 8062 913d 70d6 a03d
00000370: 90db f0bd b8d1 743e d0aa 873e a0b2 df3d
00000380: cdae 9f3d db9c b03e dc49 9e3e bf97 883d
00000390: 155b a0be b710 b73e 9aa1 ea3e 5024 b8bd
000003a0: 87f1 853e b12d c9be c933 253f b039 84be
000003b0: 16e6 f5bd 0769 82be 3f4c b0be d6be 773d
000003c0: b6db 0b3e 9403 3d3e 9688 17be 2c37 813d
000003d0: 98ca 533e 9a26 d7be 5ef7 a1bf cf79 1cbf
000003e0: bf8f 9f3e b282 113f a566 8f3e c491 6a3e
000003f0: 116a 823e 76a5 243f 3658 0140 00bf 053f
-0.340754 0.3163362 0.20517132 0.010216966 0.28914574 -0.1261555 0.49674147 -0.006079958
0.0025152962 0.2542989 0.5969428 0.3443674 -0.36874956 0.4208531 0.5769309 0.15158547
0.5525548 0.54281026 -0.039779563 0.2737561 -0.2430577 0.20306394 0.6467989 -0.029754393
-0.3090463 0.1106601 0.09544272 0.28739294 0.24851568 -0.53750753 -0.54846495 0.20229292
0.29367045 -0.33134216 -0.27358386 0.2523719 0.28543115 0.78911525 1.7324831 0.5534804
0.21202095 -0.32111794 0.40484145 0.40882614 -0.092985004 0.5067101 -0.20146926 0.500878
-0.28592253 0.12610099 0.5855484 -0.06459295 -0.25340986 0.5735075 0.022569008 -0.4579429
0.26848102 -0.09669723 0.21732597 0.0958867 0.19724372 0.57422 0.26359704 0.14060678
0.3534129 -0.18917607 -0.29524517 0.25094932 -0.03797931 -0.02191124 0.6080645 -0.23932528
0.30991188 -0.13312349 -0.4507892 0.34230462 0.22432873 -0.23609598 -0.42429674 0.30422375
-0.093885995 -0.26211068 -0.17075878 -0.024138467 0.30932584 0.24819066 -0.1816928 0.069665164
0.048597742 0.34222832 -0.18729728 0.27858457 -0.1171571 0.3922123 -0.18027593 0.12209593
0.085657805 -0.15559477 0.11354519 0.22757001 0.49061078 0.33115005 2.0464637 0.35336852
-0.36967683 0.1338751 -1.4335165 -0.03675487 0.14164795 -0.15979214 0.15213218 -0.2324442
0.61887115 -0.50297457 -1.2636875 -0.32420218 -0.18640278 -0.7941407 -1.5142676 -0.52871406
0.309631 0.4200256 0.026433986 0.2890316 0.10683439 0.19964181 0.3909755 0.39114308
0.25451028 -0.28884724 0.19826308 -0.04294986 0.4664041 0.3118073 -1.3083678 -0.017623281
0.13295043 0.015294646 0.4799514 -0.0840239 -0.2840165 0.34371197 -0.035454463 -0.18672448
0.2237549 -0.058404125 0.6509386 0.13888 -0.47520372 0.345592 -0.0911069 0.27738252
0.23964725 -0.2083018 0.4709142 0.1026751 -0.14007895 0.39091888 -1.4575595 -0.07787855
-0.45155072 -0.052992035 0.03531952 0.10782407 -0.39207262 -0.1805352 0.8273145 -0.04070091
-0.2972546 -0.41616124 -1.8473446 -0.36317122 -0.23776309 0.2546691 0.08440239 0.09452328
-0.46150127 -0.53395325 -1.1029371 -0.7796959 0.1321123 0.22276741 0.68876445 -0.2372761
-0.05785489 -0.26886123 -0.076164454 0.091474906 -0.20898251 -0.011965807 0.51250565 0.1357668
-0.493303 0.14607823 0.62376416 0.18452336 0.07868624 0.025978327 -0.05385512 -0.010082841
-0.10151251 0.3521304 0.16241668 0.4191094 0.10419654 -0.024306217 0.29625326 -0.16735306
-0.10805098 0.3234309 0.27679917 -0.10512566 0.2695386 -0.10151324 0.63206315 -0.30291846
-0.1878239 0.013096453 0.070988655 0.07853401 -0.11760628 0.23908126 0.26497507 0.10922742
0.077970125 0.3449467 0.30915725 0.06669568 -0.3131949 0.3575494 0.45826417 -0.08991301
0.26160833 -0.39292672 0.6453214 -0.25825262 -0.12006776 -0.25470755 -0.3443317 0.06048473
0.13658032 0.18458396 -0.14798197 0.06309351 0.20682752 -0.42021638 -1.2653615 -0.61123365
0.31164357 0.5684005 0.28008 0.22907168 0.25471547 0.64314973 2.021009 0.5224457

bias f4 [256]
00000000: 4c83 1e3f 48a8 3d3f 2cba 483f a9cd 653f
00000010: c853 90bf 0449 3a3f 6b7a 4a3f 9d4a 7c3e
00000020: 1fbe a4be 255d 5b3f 8279 b4be 6e17 6b3f
00000030: cdb6 5b3f b357 183e 8a5f 3d3f 66e9 31bf
00000040: 2a75 743f b6f1 213f 191e 693f e2cc 233f
00000050: 0184 333f ffaf 2c3e e941 603f f5aa 593f
00000060: 068f 6d3f d44f 813f 2850 30bf e01b 043f
00000070: 8aec ae3d 2dce 38bf 76c8 60bf 9973 623f
00000080: 5431 3f3f 2434 86bf 5a29 273f 258d 543f
00000090: 4665 603f e44a 3dbf df1d 523f c3ac 0bbf
000000a0: a074 6cbf 047e 58bf 5f56 4abf cc2a f73e
000000b0: de09 6ebf 8708 513f ee22 573f b370 213f
000000c0: 25b0 51bf 52e7 84be f361 213f f728 583f
000000d0: cc0c 683f c308 433f d13b 3f3f b83c b6be
000000e0: 5964 303f 0e4d 583f 0ddd 313f 2336 5b3f
000000f0: 4583 2f3f 9ff7 febe e393 7bbf 822b 69bf
00000100: 4cae 6c3f 593d febd c5ac 69bf 0ed9 5e3f
00000110: 0136 593f ad77 4c3d fe46 24bf dbea fcbe
00000120: 5248 573f 3c91 7a3f ff02 56bf 35c2 b0bd
00000130: 71d5 683f fa3a 033f b40d 433f d602 29bf
00000140: 30df 8cbf 79b6 fdbe b641 493f 09a4 403f
00000150: ef70 a1bf 1511 0c3f e042 043f 6c2e 5cbf
00000160: 6cc8 3f3f d6cc a53d c30b a8be 041d ae3e
00000170: a295 493f 365f 293f 5fd3 373e d4f9 edbe
00000180: a6a7 603f 7dc0 38bf b4be 543f dc17 b83e
00000190: 3a17 7d3d c7ae 6abf acad 373f 12eb ee3e
000001a0: 0580 1cbf d293 cebe 8f6f 41bf 5678 54be
000001b0: 5d41 f73e f4a3 1c3e 1c36 2d3f 0395 8e3e
000001c0: 65f8 173f 4e80 0abf 0f7a 54bf dccc ec3e
000001d0: d2c1 233f 90d7 47bf 26ea 12bf 87df 1e3d
000001e0: e749 6bbf 168c 63bf 7a81 343f 69a1 4b3f
000001f0: d161 593f 85da 4abf cf79 603f 1188 89bf
00000200: 8850 403f e5e7 6ebf 2b12 013f 14e5 9f3e
00000210: 5342 073f 7037 183f 0ebd 54bf 18ba 103f
00000220: cd86 78be 829f 3e3f 13fe c83c 2673 5fbf
00000230: 10a2 48bf b9af 263f fd68 6a3f e748 2dbf
00000240: e3d2 023f 52cc 973c b530 28bf 3db5 553f
00000250: abf1 533d 4ada f7be 9975 4cbf 61cd 703c
00000260: b60b 433f 0cfa 5c3f 51c9 673f ed26 363e
00000270: c16c 84bf f609 403f 6507 d33e 4330 2f3f
00000280: 9680 c93e 71b6 5d3f 0f6e 80bd 42a5 563f
00000290: aa59 59bf a3dd 6d3f 0650 433f 2322 543f
000002a0: c3e1 303f c258 29bf f585 313f 3f29 1b3f
000002b0: db39 4b3f 1490 403f 5b7c 22bf 3b44 57bf
000002c0: 46a5 433f dcd4 04bf f914 033f a672 103f
000002d0: e484 793f 6215 023f ba76 553f 3b8f 413f
000002e0: be0d 793f d763 383f 11d2 113f db44 253f
000002f0: dd78 c43e c2b8 803e c513 40bd 69a6 6a3f
00000300: b93f 553f 073f 2c3f 838b 5f3e 7a58 013e
00000310: b68e 193f 05e6 423f 6fa4 7ebf 2679 623f
00000320: 3040 273f 3202 2dbf 1758 6d3f 0085 593f
00000330: 25ab c3be c7a0 553f 212e 6c3f 331f 453f
00000340: 6844 41bf 1004 43bf bc42 71bf 0d78 073f
00000350: 4df4 4ebf 0831 6c3f e9f0 fdbe 86f2 3b3f
00000360: 4dd9 273f bf4e 053f 72e0 59bf f52c 183f
00000370: 283c 4f3f 9886 8cbf 1475 3e3f 57c3 023e
00000380: 25b3 4ebf 6353 773f bfbd f53e 0069 533f
00000390: 65d5 03bf 3169 bd3e 3d87 0cbf e479 83bf
000003a0: e2cf 91bf d6f2 2b3f 5581 3f3f bda2 35bf
000003b0: 0a56 6c3f 0744 0b3f ca46 84bf e0b5 3ebe
000003c0: 9f61 3ebf 0b1a 06bf 8d4d 683f cf08 573f
000003d0: 3812 263f 4a3e 78bf 5188 253f 911d f9be
000003e0: c654 66bf e8cb 003e 11b6 f93e b53a 72be
000003f0: ef8d 293f 5598 2a3f d085 433f f990 a33e
0.61919093 0.740849 0.78409076 0.8976694 -1.1275568 0.72767663 0.79093045 0.24637838
-0.321763 0.85689 -0.35248953 0.91832626 0.85825807 0.14877205 0.73973906 -0.6949676
0.9549128 0.63259447 0.9106155 0.639845 0.70123297 0.16864012 0.8760057 0.85026485
0.9279636 1.0102487 -0.6887231 0.51605034 0.0854121 -0.721896 -0.8780588 0.8845764
0.74684644 -1.0484662 0.6529747 0.8302787 0.8765453 -0.739424 0.8207683 -0.5456049
-0.92365456 -0.84567285 -0.7903804 0.4827484 -0.92983806 0.81653637 0.84037673 0.6306259
-0.819094 -0.25957733 0.63040084 0.8443751 0.90644526 0.76185244 0.7470065 -0.355932
0.6890312 0.84492576 0.6947792 0.8562948 0.68559676 -0.49798295 -0.9827253 -0.9108201
0.92453456 -0.12414045 -0.9127925 0.8704995 0.8484803 0.04991882 -0.64170825 -0.4939793
0.8409473 0.9787786 -0.8359832 -0.08630792 0.90950686 0.51261866 0.76192784 -0.6601995
-1.1005611 -0.49553278 0.7861589 0.752503 -1.261259 0.54713565 0.51664543 -0.86008334
0.74915195 0.0809571 -0.32821473 0.34006512 0.78743947 0.66160905 0.17951725 -0.46479666
0.8775581 -0.72168714 0.8310349 0.35955703 0.06178973 -0.9167294 0.7174938 0.4666372
-0.6113284 -0.40347153 -0.7556085 -0.2074903 0.48292056 0.15296918 0.6766069 0.27848062
0.59363395 -0.5410203 -0.82998747 0.46250045 0.6396762 -0.780633 -0.5738853 0.03878739
-0.9190964 -0.8888563 0.70510066 0.7954317 0.8491488 -0.79239684 0.87685865 -1.0744649
0.7512288 -0.9332259 0.5041835 0.3122946 0.5283558 0.5945959 -0.83100975 0.56533957
-0.24270172 0.7446214 0.024535215 -0.8728508 -0.7837229 0.6511188 0.9156645 -0.67689365
0.5110304 0.018530045 -0.6569932 0.8347967 0.051744144 -0.4840873 -0.7986694 0.014697404
0.76189744 0.8631904 0.9054156 0.17788287 -1.0345689 0.750152 0.4121658 0.68433017
0.39355916 0.8660651 -0.06270992 0.83845913 -0.8490244 0.92916316 0.7629398 0.8286459
0.69094485 -0.6615106 0.6934503 0.6060981 0.79385155 0.75219846 -0.63471 -0.84088486
0.7642406 -0.518873 0.51203877 0.5642494 0.974684 0.5081388 0.8338429 0.7560918
0.97286594 0.72027344 0.5696116 0.6455819 0.3837346 0.2514096 -0.046893854 0.9166017
0.8330036 0.6728367 0.21830563 0.12631407 0.59983385 0.7613223 -0.99469656 0.8846611
0.6533232 -0.67581475 0.9271254 0.84968567 -0.3821651 0.8344845 0.9225789 0.7700073
-0.75495005 -0.76178074 -0.94242454 0.5291756 -0.80841523 0.92262316 -0.49597862 0.73416936
0.6556595 0.5207328 -0.851081 0.594436 0.80951166 -1.0978575 0.743974 0.12769829
-0.807421 0.96611613 0.47996327 0.8258209 -0.5149749 0.36994317 -0.5489386 -1.0271573
-1.1391566 0.67167413 0.7480672 -0.70951444 0.92318785 0.54400676 -1.0334103 -0.18624067
-0.7436771 -0.5238349 0.90743333 0.83997816 0.6487155 -0.96970046 0.6466113 -0.4865537
-0.89973104 0.12577784 0.48771718 -0.23655207 0.662322 0.6663869 0.76376057 0.31946543

weight f4 [2, 256]
00000000: 35e8 853e 04ef ae3e 7559 c43e b420 c93e
00000010: 9812 43bf f562 a83e ec66 8f3e 3c2a 6a3e
00000020: ddd0 a33e 9924 52bf 3261 5abe 0a69 c23e
00000030: 205a c53e 1595 d23d 6c48 b33e e577 f7be
00000040: 7e6d 993e e467 983e 3087 7d3e bb77 d93d
00000050: 2105 233d 56ac 4f3e 54cb d13e 01bc a43e
00000060: 09a3 a83e e867 1ebf 55f5 93bf 5da5 7d3e
00000070: 6bd3 1d3e 443a c7bf 908d 90bf d904 b53e
00000080: c682 8e3e 8eee b3bf 5030 b23e f30f 263e
00000090: 3ea6 ca3e 3340 81bf 0d09 bb3e a799 02bf
000000a0: 3579 88bf 00f2 9dbf 538c abbf 1945 c13e
000000b0: da05 efbe 63fc 533e 7b2d 893e cc2d 9c3e
000000c0: f5c0 70bf 6002 cf3c b423 d43e cda0 973e
000000d0: 7272 9b3e 8c02 6d3e ccbc c63e 5465 adbc
000000e0: 6780 b83e 7bd4 9a3e b463 a93e 6789 933e
000000f0: a82e 903e b846 42bf 204b 83bf 089a bfbf
00000100: b887 823e 73e0 933d 0300 70bf 25cd a43e
00000110: d52e a73e 4bea 8b3e 2a16 b0bf 40ba 8ebf
00000120: 8761 8a3e e54e 843e a7b2 7ebf b904 803e
00000130: a86c b53e a501 953e c083 bcbe c2e9 6bbe
00000140: 77b2 8fbf d52c f03c 1437 e13e 49b6 71bf
00000150: f502 68bf 6b8a 6d3e 90bf 9d3e 45c1 96bf
00000160: 0859 7e3e e092 713e 8977 28bf a7f2 c53d
00000170: 89b8 743e ebea 3b3e 7bd0 273e f65d 56bf
00000180: aacf 3abf e75d 1dbf b01a 5abf f383 48be
00000190: 0ddc d9be c641 84bf 5541 953e 9205 b33d
000001a0: 49c5 03bf 1253 343d 8cc3 8ebf a6e2 b73d
000001b0: a952 973e e110 643d f623 733e 8035 97bd
000001c0: b3f4 ff3d bf50 9abf 8f44 b4bf b284 9dbe
000001d0: e7ed 913e 670c a0bf d7e8 50bf 778e 593e
000001e0: 1eb0 8cbf 0ebc 97bf 5278 543e 3711 8a3e
000001f0: 114f 543e ea89 8abf f2eb a23e ab0e 7ebf
00000200: f25c 813e 835f a6bf 5f52 353e 7e74 cd3c
00000210: 5e0f 433e 9a6c 2b3e ea26 7ebf 546c 8b3e
00000220: 4d86 18bf 58a6 b83e d9f7 353e 3c27 c1bf
00000230: 1b75 cdbf 19f2 2f3e fa5b b33e 6c90 a2bf
00000240: ca04 783e 5fa0 c53e 990b 8cbd f664 6b3e
00000250: 423b 563e ec44 56bd 69f4 49bf b068 f03d
00000260: 5692 ab3e 24b1 d73e c862 b83e 4445 a93d
00000270: e682 32bf 7c97 3dbf d088 5d3d 952d 963e
00000280: 15f6 2fbd 179d 943e 5958 f73e 7c8a 943e
00000290: 10b1 afbf 93ab a43e 91f7 943e 89b3 bb3e
000002a0: 15ea 053e bd04 99be f8c9 8c3e f6f2 ae3e
000002b0: fa35 64bf 7e8d 933e 3f3f 35bf 2873 d5bf
000002c0: 26e2 9a3e 790a 87bf a31e 803e a865 f13d
000002d0: 4eb7 a23e 0b2f 803e a9b8 683e 43ad 633e
000002e0: e85e b13e 805a 2b3e 51e4 803e b142 933e
000002f0: 929a 943d 4712 cb3c e9fc 983e 741d c83e
00000300: 6af0 8c3e 351a cc3e 01a7 f53d bc11 eb3d
00000310: 6fa4 9e3e 832d 843e f064 94bf 26fe 08bf
00000320: d842 c03e 5354 7fbf bf69 b33e a6a7 653e
00000330: 724b 81bf 863a d73e 6875 853e 6794 973e
00000340: e21f 69bf b08d 79bf c720 c8be e5f3 6f3e
00000350: c6a2 95be 356c 8abf 318e 88be 5d82 a43e
00000360: e140 9b3e 8d65 5e3e d3cd 4abf 7a12 403e
00000370: d47e 9b3e 53c5 01bf 724b bb3e 390a c9be
00000380: e270 8ebf 7223 30bf 24ab c33e d249 703e
00000390: 4bc9 f8bd 3847 333e d7c4 d1be 6301 8dbf
000003a0: 37a6 96bf 34df 723e 86e7 e8be b0bc 51bf
000003b0: 517e a23e 1fff 8f3e 011d c8be 5f36 1e3e
000003c0: 1c48 8ebf 611d 34bf f047 b33e 6c1f 8f3e
000003d0: 1de4 803e 2b67 53bf e330 bb3e 6ddd 42bf
000003e0: f713 c8bf 28f2 083e fdf0 3d3e af88 4abe
000003f0: 7a14 883e 8604 8a3e 432c 173e 0010 313e
0.26153722 0.3416673 0.383495 0.39282763 -0.76200247 0.32887998 0.2800821 0.22867674
0.31995288 -0.82087094 -0.2132614 0.37970763 0.38545322 0.102823414 0.3501619 -0.4833366
0.29966348 0.29766762 0.24758601 0.1061854 0.039799813 0.20280585 0.4097544 0.32174686
0.32936886 -0.618773 -1.1559244 0.24770112 0.15412681 -1.5564656 -1.1293201 0.3535526
0.27834147 -1.4057176 0.34802485 0.16217022 0.39579958 -1.0097717 0.36530343 -0.51015705
-1.066199 -1.2339478 -1.3402199 0.3774803 -0.46684152 0.20701747 0.2679251 0.3050369
-0.9404443 0.025269687 0.4143349 0.2961487 0.30360752 0.23145503 0.38815916 -0.021166481
0.36035463 0.30240235 0.3308388 0.28815767 0.28160596 -0.7588916 -1.0257301 -1.4968882
0.2549417 0.07220545 -0.9375002 0.32187763 0.32652918 0.2732719 -1.3756764 -1.1150589
0.27027532 0.25841442 -0.9949135 0.25003603 0.3543446 0.29102817 -0.36819267 -0.2303839
-1.1226338 0.029318253 0.43987334 -0.9441877 -0.9062951 0.23197334 0.30810213 -1.1777731
0.2483865 0.23591185 -0.65807396 0.09665423 0.2389852 0.18351333 0.16388123 -0.83737123
-0.7297312 -0.6147141 -0.8519697 -0.19581585 -0.42550698 -1.0332572 0.29151407 0.08741297
-0.5147291 0.044024535 -1.1153426 0.08978777 0.29555252 0.05568016 0.23744187 -0.07383251
0.124978445 -1.2055892 -1.4083422 -0.307653 0.28501818 -1.2503785 -0.81605285 0.21245752
-1.0991247 -1.1854265 0.20749024 0.2696626 0.20733286 -1.0823338 0.31820637 -0.9924113
0.25266224 -1.2997898 0.17707203 0.025079962 0.19048831 0.16740647 -0.9927813 0.27231085
-0.59579927 0.3606441 0.17770328 -1.5090098 -1.6051363 0.17182197 0.3503111 -1.2700324
0.24220577 0.38598916 -0.068381496 0.22987732 0.20921043 -0.052311823 -0.78888565 0.117387176
0.33510083 0.42127335 0.36012864 0.082651645 -0.69730985 -0.7405927 0.054085553 0.2933165
-0.04295929 0.290261 0.4830959 0.29011905 -1.372591 0.3216215 0.29095128 0.36660412
0.13077576 -0.29886428 0.2749784 0.3416974 -0.8914486 0.28818887 -0.7079963 -1.6675768
0.30250663 -1.0550071 0.25023374 0.117869675 0.31780475 0.2503589 0.22726692 0.22234063
0.3464272 0.16733742 0.25174192 0.2876182 0.072560444 0.024788989 0.29880455 0.3908497
0.2752717 0.39863744 0.11994744 0.11477992 0.30984828 0.25815973 -1.1593304 -0.535128
0.37550998 -0.99738044 0.35041615 0.22427234 -1.0101149 0.42036837 0.26066136 0.2960541
-0.91064274 -0.9748182 -0.39087507 0.23432882 -0.2922575 -1.0814272 -0.26670983 0.3213071
0.30322936 0.21718426 -0.7922031 0.18757048 0.303702 -0.5069172 0.36580998 -0.39265612
-1.1128199 -0.68804085 0.38216507 0.2346566 -0.121477686 0.17507637 -0.4097049 -1.1016048
-1.1769475 0.23717958 -0.45489138 -0.8192854 0.31736997 0.2812433 -0.39084628 0.15450428
-1.1115756 -0.7035733 0.3501582 0.2795366 0.25174037 -0.82579297 0.36560735 -0.7611912
-1.5631093 0.13373625 0.18548961 -0.19778703 0.26578122 0.26956576 0.14762978 0.1729126

bias f4 [2]
00000000: 4da8 b43e f415 8a3e
0.35284653 0.26969874
