models/CartPole-v1_best.pt (torch, 10840 bytes, 4 tensors)

weight f4 [256, 4]
000000 6e eb 52 3e af 8f f7 bc 77 c1 81 3e 9f 79 0c 3e
       0.20597622 -0.03021988 0.25342914 0.1371827
000010 33 0b dc be 97 8c c3 3d c3 fb 10 3f 80 ec 20 3e
       -0.42977294 0.095483 0.5663416 0.15715218
000020 9b e2 11 bf fb bc d6 3d 0e a5 7c 3f 40 7a 46 3f
       -0.569864 0.10485264 0.98689353 0.7753029
000030 3b 8d 7a 3e 92 dd b5 3d a8 21 72 3e 72 64 ba 3e
       0.24467938 0.08880152 0.23645651 0.3640476
000040 77 04 28 3e bd 1f 91 3e ac 79 ef 3f 67 f1 26 3f
       0.16407953 0.28344527 1.8709006 0.652121
000050 be 07 a6 3e 58 0f 4f be 4b 05 d3 3e 6e f4 39 be
       0.32427782 -0.20220697 0.41214976 -0.18159649
000060 4b be a5 3e a9 5b f4 bd 95 a1 f6 3c 0d 91 4a be
       0.32371745 -0.11931545 0.030106345 -0.19781895
000070 d3 fd b2 be 2d ed e8 3e 11 56 55 3f 7b d7 5b be
       -0.34959278 0.4549345 0.8333445 -0.21468918
000080 18 52 f2 be c7 aa 0b 3f e7 20 e2 3e d2 df b9 3d
       -0.47328258 0.5455746 0.44165727 0.090758935
000090 f9 ea 4c be d1 55 f9 3e a8 6d 94 3e e0 8f 3f 3e
       -0.2001151 0.48698285 0.2898991 0.18707228
0000a0 95 51 aa be cf b8 ea be 15 d6 3f bf 4b 3d a1 be
       -0.33265367 -0.45844123 -0.7493604 -0.31492075
0000b0 c9 d7 18 3f 71 24 e9 be 0e cd cb bf 25 59 54 bf
       0.5970426 -0.45535615 -1.5921953 -0.82948524
0000c0 44 32 86 3e 89 fd 89 be 23 aa 1c be cf 86 a1 be
       0.26210225 -0.26951244 -0.15299277 -0.31548163
0000d0 18 e9 08 bf 95 cd 9d 3e 3c 3b cf 3f 0b bb 0a 3f
       -0.5348067 0.3082091 1.6189952 0.54191655
0000e0 9f dd b1 be 38 ad 90 3c e3 de d9 bd 91 4f 89 be
       -0.34739396 0.017660722 -0.106382154 -0.26818517
0000f0 e9 8a 31 be 74 dd f0 3e 95 47 81 3e 2d f9 9d 3d
       -0.17338146 0.47043955 0.25249925 0.07713542
000100 c9 39 aa 3d 1d 08 af 3d b0 04 fd be 6e 91 d3 bd
       0.08311803 0.08546469 -0.4941764 -0.10330473
000110 d4 4d 80 bd 96 db c3 3e 80 c9 06 3f f6 62 a3 bd
       -0.062648445 0.38253468 0.52651215 -0.0797786
000120 57 b0 a1 3d 46 a8 e5 3e e3 a6 d4 bc 91 d2 46 bd
       0.07894962 0.44854945 -0.025958484 -0.048540656
000130 6c 4e 18 3e 45 1b d9 3d 8c ac 85 3e 54 d5 2c 3e
       0.14873666 0.106009044 0.26108205 0.16878253
000140 0f 68 cd bc 67 26 61 bd fd 5b ad 3e 0b 85 41 be
       -0.025074033 -0.054968264 0.33859244 -0.18898408
000150 b8 97 93 3e fd 9d e6 be f2 d2 3b bf 47 bf c7 3d
       0.2882669 -0.4504241 -0.7336875 0.0975328
000160 fa 83 eb be 95 75 38 be 21 c6 a9 3f a8 6c 03 3e
       -0.45999128 -0.18013604 1.3263589 0.12834418
000170 b9 89 f9 be ba 14 8c be 61 d7 9d be 12 b4 bf bc
       -0.48737887 -0.27359563 -0.30828384 -0.023401294
000180 ab fc 4d 3e ce d9 6a 3d 13 27 37 3e 4b c2 c1 3d
       0.20115916 0.05733662 0.17886 0.094608866
000190 cd 76 8e 3e a1 26 e7 be a5 d6 96 3e ef 8d a5 be
       0.27825013 -0.4514666 0.29460636 -0.3233485
0001a0 da 0e 32 be 8b d5 f9 3e b3 50 fc 3d 75 1d 02 bd
       -0.17388478 0.48795733 0.1232008 -0.031766374
0001b0 55 68 9f 3d b7 ac 8f 3e a5 0b 9f be d8 c9 0f 3e
       0.07783572 0.28061458 -0.31063572 0.14041841
0001c0 a9 ae 3f be ae a8 e9 3e b0 48 0d bf 9a ac bf 3e
       -0.18718971 0.45636505 -0.5518904 0.37436372
0001d0 66 c8 32 3e 83 6e 81 3e 8c 51 d3 3f 63 f3 0f 3f
       0.17459258 0.25279626 1.6509261 0.56230754
0001e0 df bc ce 3e 7e 01 a7 be 61 a7 6b bf a0 ba 36 bf
       0.40378472 -0.32618326 -0.92052275 -0.7137852
0001f0 0b 42 e0 3e 3f 08 b9 be 4a 72 89 bf ea 56 04 bf
       0.43800387 -0.36139104 -1.0738003 -0.5169512
000200 b2 ff c8 bd 6e b1 1f be 4b e4 8f be 34 59 11 bc
       -0.09814395 -0.15595028 -0.2810386 -0.008871365
000210 91 33 a8 be a8 2f 94 be e7 2e a2 bf 82 4f 93 be
       -0.32851842 -0.2894261 -1.2670563 -0.28771597
000220 db a8 7f be 50 b0 8c 3e 63 a6 93 3e 12 35 dc 3d
       -0.24966757 0.27478266 0.2883788 0.1075231
000230 cc 4f e4 3c fa 80 1f 3f e4 da 49 be 59 42 d6 3d
       0.027870081 0.6230618 -0.19712406 0.104618736
000240 45 ef 23 3e 26 7f d2 be 5f ba c9 be 54 28 91 bd
       0.16009243 -0.41112632 -0.39400002 -0.0708777
000250 8e 98 b4 3e d1 51 c7 bd 14 c9 0a bf 90 9e 2c 3d
       0.3527264 -0.09732402 -0.5421307 0.042143404
000260 3f 1c 13 3e 1b f1 9f 3e a9 49 bc 3f bb 6e 15 3f
       0.14366244 0.31238636 1.4709979 0.58372086
000270 12 6c 1b be 83 8b e8 3e 0f 4a 9e be a7 4d cc 3e
       -0.15177944 0.4541894 -0.30915877 0.39902994
000280 43 90 be bc ab 54 1a be dc bc d9 3c ea 18 6a bd
       -0.023262149 -0.15071361 0.026579313 -0.057152666
000290 23 d0 99 3e a7 14 4c 3d b5 8b 08 be 76 35 61 3d
       0.30041608 0.049824383 -0.13334544 0.054982625
0002a0 e2 b6 81 3e 38 d2 06 3e f9 c5 89 3f 89 a6 d7 3e
       0.2533484 0.1316613 1.0763541 0.42119244
0002b0 8a 62 e8 bd 3e a5 80 3e 1f 8e 91 be 6f 44 b1 3e
       -0.1134692 0.2512607 -0.28428742 0.34622523
0002c0 81 0c 57 3f 9d bb 87 be 4f 13 6d bf fc 80 cd be
       0.84003454 -0.26510325 -0.9260759 -0.4013747
0002d0 ad 2d 64 3d ec 6f b9 3e 66 10 f5 3d ea c0 4d 3d
       0.055707622 0.36218202 0.119660184 0.050232805
0002e0 80 1c 28 3e bf f4 56 be 73 77 d1 3d fd a2 be be
       0.16417122 -0.209918 0.10227861 -0.37233725
0002f0 8f e1 48 bf b4 2a ba 3e 22 c9 b0 3e 03 04 1f be
       -0.78469175 0.36360705 0.34528452 -0.15528874
000300 45 a7 d7 3e f8 e3 7e 3e 1a fa 82 3f d1 9e 14 3f
       0.42119804 0.2489165 1.0232575 0.58054835
000310 b1 ca ad 3e b4 fc 50 be b2 75 8d 3d 34 5f 87 bd
       0.33943704 -0.20408899 0.06907214 -0.066099554
000320 85 d3 2f 3f af 3a 3d 3e 0b be 04 bf 42 4d 49 be
       0.6868213 0.18479417 -0.5185248 -0.19658378
000330 b5 29 3e be 01 09 81 3e 2b b1 93 3e 88 32 15 3e
       -0.18570597 0.25202182 0.28846106 0.14570057
000340 65 b9 92 3e 42 47 31 be e0 0b 24 bf 51 f5 13 3e
       0.2865707 -0.17312339 -0.6408062 0.1444905
000350 1a 2e 92 3e 9a 64 a8 be 1e 0f e4 be 23 bb 18 3e
       0.28550798 -0.32889253 -0.44542783 0.14915137
000360 91 00 ca 3d 0b 40 9f 3c 42 fb ad be 44 b0 99 3e
       0.09863389 0.019439718 -0.33980757 0.30017292
000370 ec 11 a4 be fe 81 fb 3c 45 9b 63 3d b2 29 a1 bd
       -0.32044923 0.030701634 0.055568 -0.07869281
000380 67 10 52 3d f0 b4 bc 3d 2d 9f ca 3d 57 7b 10 be
       0.051285174 0.092141986 0.098936416 -0.1410955
000390 7f 49 50 bf 73 cc f7 3e 4a 58 3c be 81 0c 31 bd
       -0.81362146 0.4839817 -0.18393055 -0.043224815
0003a0 1d d2 69 3e 2f e0 15 3e 3c 71 fb bd 61 32 4e bc
       0.22834058 0.146363 -0.12277457 -0.012585253
0003b0 e5 2e b8 3e 74 cf 55 be 38 2c 13 bf 2b 47 6e 3e
       0.35973278 -0.20879918 -0.5748935 0.23269336
0003c0 3a 01 72 3e ea e6 ac be e7 8b 4f 3e 18 6b 6f bd
       0.2363328 -0.33769923 0.20268212 -0.058451742
0003d0 5d 69 88 3e 5e da 03 bf 64 01 8d bc 15 c0 b3 bd
       0.26642886 -0.51505077 -0.017212577 -0.08776871
0003e0 d8 b3 77 bb a5 74 e2 3e f9 1b 15 bf 92 88 03 bf
       -0.0037796404 0.44229618 -0.5824581 -0.51380265
0003f0 fa 6f 90 be 0e 8f 14 be 09 73 6d be e5 c0 4f bc
       -0.2821043 -0.14507696 -0.23188414 -0.012680267

bias f4 [256]
000000 eb 30 1c 3f b0 c0 42 bf ad 04 79 be 2e fd 6e 3f
       0.6101214 -0.7607527 -0.2431819 0.9335507
000010 b0 ad cb be 44 33 4f 3f 71 ee 4a 3f 0e e8 32 3f
       -0.3978095 0.809376 0.7927008 0.6988534
000020 92 c7 78 3e 4f 69 3f 3f 4e c8 47 bf 48 6f ea be
       0.2429488 0.74770063 -0.78040016 -0.45788026
000030 5a 82 29 3f 18 7a aa 3e 26 6a 57 3f fc 4b 2d 3f
       0.66214526 0.33296275 0.84146345 0.6769407
000040 f4 3f 40 3f 15 11 e2 3e 58 19 62 3f 48 41 3d 3f
       0.75097585 0.44153658 0.8831992 0.73927736
000050 12 67 08 3f 3a 10 15 3f 6c 30 5d bf d5 1d 86 be
       0.5328227 0.58227885 -0.8640201 -0.26194635
000060 d9 fc 1e 3f da 98 14 3f 6e eb 7d 3f 5c bc 81 be
       0.62104565 0.5804573 0.9918736 -0.2533902
000070 df af cf 3e 3c cb f8 be 9b fd cf be c1 1a a7 be
       0.40563866 -0.48592556 -0.40623173 -0.326376
000080 61 a0 e9 3e 41 f6 3f bf 3a 95 16 3f 05 12 fa be
       0.45630172 -0.7498513 0.5882145 -0.48841873
000090 8a d8 05 3f 70 cc 5d 3f 83 d6 f1 be e4 38 05 3f
       0.5228354 0.8664007 -0.47233972 0.52039933
0000a0 f9 69 cf 3e de d0 45 3f 29 ee f8 be 94 49 30 3f
       0.40510538 0.7727183 -0.48619202 0.6886227
0000b0 21 20 bd 3f 25 c4 28 3f 00 9d 49 3f 5f 6d 31 3e
       1.477543 0.6592429 0.7875519 0.17326878
0000c0 55 5b c3 be 03 99 42 3f 37 20 c5 3f bb d3 bb 3e
       -0.38155618 0.7601473 1.5400456 0.36684975
0000d0 79 0f 3c 3f fb 83 ed 3e 0d 6e 38 3f f1 32 fa 3e
       0.7346111 0.46389756 0.72042924 0.4886699
0000e0 23 e0 46 3f 29 fa 1f 3d 07 b1 3c 3f 94 79 6f 3f
       0.77685755 0.03905693 0.7370762 0.9354489
0000f0 cc eb 5c 3f e5 23 08 3f d9 22 4a bf 03 17 60 3f
       0.862973 0.5317977 -0.78959423 0.87535113
000100 e9 39 60 3f 1e 67 ec be e6 dd 67 3f 5a 6c 99 3e
       0.87588364 -0.46172422 0.90572965 0.29965478
000110 29 28 a8 be 11 de 09 3f 49 dc 56 3f 5a d7 0e bf
       -0.3284314 0.5385447 0.8392988 -0.5579735
000120 a6 fb 96 3d 35 78 56 bf 4f 6d 92 bd 6e cb 8b 3e
       0.07372217 -0.8377717 -0.07149755 0.27303642
000130 55 f0 28 3f 29 14 ba 3f 04 d2 4b 3f 94 d7 54 bf
       0.6599172 1.4537402 0.79617333 -0.83141446
000140 45 45 4e bf 82 a1 27 3e ff 74 4b 3f f1 a8 09 bf
       -0.80574447 0.16370204 0.79475397 -0.5377341
000150 d3 1e 0b bf 11 6b 39 3f e3 5e 5e 3f 54 25 14 3f
       -0.5434391 0.72428995 0.86863536 0.5786946
000160 61 0b f0 bc 97 f8 a1 3e 4b c6 27 be ff a9 69 3f
       -0.0293023 0.31634971 -0.16384237 0.9127502
000170 08 7d 3f 3f 18 da dc be 19 0c 6b 3f 10 84 48 3f
       0.7480016 -0.43135142 0.91815335 0.7832651
000180 68 e6 40 3f 5f b2 65 3f 8a f7 59 3f 79 c2 f2 be
       0.7535157 0.897253 0.8514334 -0.47413996
000190 ff 3e b6 3f 23 8c 3e 3e 22 02 da 3e a7 c8 23 bf
       1.4237975 0.18608145 0.42579752 -0.63978046
0001a0 cb af ea be 8f d5 54 3f 58 f8 fe be b9 75 81 3f
       -0.45837244 0.83138365 -0.49798846 1.0114051
0001b0 d1 1b 65 be 98 dc b8 3f 86 dc 01 bf 1e e4 25 bf
       -0.22373892 1.444232 -0.5072712 -0.64801204
0001c0 a7 90 bf 3e 1f 22 2a 3f 32 95 c8 be 94 67 f2 be
       0.37415048 0.66458315 -0.39176327 -0.4734465
0001d0 52 38 1b 3f 40 4c 5c 3f 61 8d 35 3f 36 1a 79 3f
       0.6063281 0.8605385 0.7091885 0.9730562
0001e0 df 79 b0 be d9 d5 ad be 86 21 aa be b9 76 1c 3f
       -0.3446798 -0.33952215 -0.332287 0.61118656
0001f0 87 e8 53 3f 3a b7 77 be 50 83 47 bf ea 4b 33 3f
       0.82776684 -0.24190989 -0.7793474 0.7003771
000200 50 61 8d 3e d7 d5 63 3f 90 94 1d 3f 8a 82 0b bf
       0.27613306 0.8899817 0.61554813 -0.5449606
000210 80 6d dd be 47 57 66 3d 5b 9a 07 be 73 a3 84 3e
       -0.43247604 0.056235578 -0.13242476 0.25905952
000220 55 1b 6e 3f e0 f1 3a 3f 4c 4a 54 3f 49 78 46 bf
       0.93010455 0.7302532 0.8292587 -0.7752729
000230 07 18 06 bf 6c 76 36 3f 68 71 af be 71 2b 25 3f
       -0.5238041 0.7127445 -0.3426621 0.6451941
000240 f5 09 26 bf 82 87 47 3f b4 9b 52 bf 47 6e 63 3f
       -0.64858943 0.77941144 -0.82268834 0.88840145
000250 52 d1 5b 3f 80 03 1f bf ac bd 91 be c1 b2 dd be
       0.8586627 -0.62114716 -0.2846502 -0.4330044
000260 b6 7e d1 be d5 b5 a6 be 6b 84 29 3f 6e d9 28 3f
       -0.40916985 -0.32560602 0.6621768 0.6595677
000270 ef 41 32 bf ea 7c de 3e 72 51 c8 3e d5 3e 84 3f
       -0.69631857 0.43454677 0.39124638 1.0331675
000280 03 84 0b 3f 94 59 13 3f ca 7e 6e bd cf 11 8a 3e
       0.5449831 0.5755856 -0.058226384 0.26966712
000290 f9 2b 67 be e6 9a 6a 3f 6e a4 34 3f 62 e5 bf 3e
       -0.22575368 0.91642606 0.705634 0.37479693
0002a0 66 fe 66 bf 82 60 b4 3e 55 9b 46 be 0b 40 e7 be
       -0.9023193 0.3522988 -0.19395192 -0.45166048
0002b0 51 d5 08 3f ba 10 27 3f f8 e5 66 3f 2b 9d ab 3f
       0.53450495 0.652599 0.90194654 1.3407339
0002c0 09 6d 9f be be 7a 81 3f 1c 38 d3 3e ce bf b8 be
       -0.31137875 1.0115583 0.41253746 -0.36083835
0002d0 66 15 0c bf f1 56 46 bf b5 e3 b5 be 70 4c 3e 3f
       -0.5472015 -0.7747641 -0.3552529 0.74335384
0002e0 b8 0e ff be fe f0 c6 3c f0 4c 25 3f 05 5a 58 bf
       -0.49815917 0.024284836 0.6457052 -0.8451236
0002f0 9c 9c 56 3f d1 04 72 3f cd 9d 1d 3f 90 e6 2b bf
       0.83832717 0.945386 0.6156891 -0.67148685
000300 94 39 3b bd b9 6c fd 3e c5 04 43 3f 6d 69 43 3f
       -0.045709208 0.4949701 0.7617915 0.7633274
000310 23 3c 8d 3e 89 e0 50 3f cb dd 33 bf e9 db 89 bf
       0.27584943 0.81592613 -0.70260304 -1.0770236
000320 f5 11 29 3f 33 82 86 be 7a 32 59 3f 99 12 e1 be
       0.66043025 -0.2627121 0.84842646 -0.439595
000330 d0 ac 14 3f 3b ec 60 3f 20 18 69 3f 89 a1 d4 be
       0.5807619 0.8786046 0.91052437 -0.41529492
000340 02 cf fa 3e bd ee 6c bc a3 dc 98 be e9 8f 41 3f
       0.4898606 -0.0144612165 -0.29855832 0.75610214
000350 bf ce 58 3f 1e b1 4e bf 26 38 67 3f ed a3 4b 3f
       0.8469047 -0.8073901 0.9032005 0.79547006
000360 3c 05 1c bf 14 d9 b7 3e 8c e0 4e 3f e1 1f 31 3f
       -0.6094549 0.35907805 0.8081138 0.6918927
000370 2b 6f 6e 3e 95 3d 18 3e f1 3d 1a bf 4e 8d 4f 3f
       0.23284595 0.14867242 -0.60250765 0.8107499
000380 38 d2 11 3f 0a 68 49 3f 9e 84 79 3f 11 cb f8 3e
       0.56961393 0.78674376 0.9746798 0.48592427
000390 06 af b3 3e 45 d7 40 3f bc 81 89 be b3 32 fe be
       0.3509447 0.75328475 -0.26856792 -0.49648055
0003a0 22 7b ea be 4d 56 b1 be a1 0b f9 bd 86 30 96 3e
       -0.45797068 -0.34636155 -0.12160421 0.29333895
0003b0 24 56 29 3f e6 b2 50 3f dc 3f 16 3f 52 cd 53 3f
       0.66147065 0.8152298 0.5869119 0.8273517
0003c0 44 bb 19 3f ef 7d c2 3e 60 ec 4b 3f 19 d8 57 3f
       0.6005137 0.37986705 0.79657555 0.84314114
0003d0 34 76 3c 3f 9f d0 16 3f 0e bd 13 3f b5 26 11 3f
       0.73617864 0.5891208 0.5771035 0.5669969
0003e0 89 b2 78 3f ba 8b 4e bf 72 fb ff be 56 6a 3e 3f
       0.97147423 -0.80681956 -0.49996525 0.74381006
0003f0 46 cc 62 be 98 4d 70 3f 60 60 f1 bd d2 49 08 3f
       -0.22148237 0.938684 -0.1178596 0.5323764

weight f4 [2, 256]
000000 3d a7 e0 3e 5d 6d 48 bf 3a f0 29 bf 57 c3 01 3f
       0.43877593 -0.78291875 -0.6638218 0.5068869
000010 f8 3f 70 bf 5c bb cc 3e 8b 58 db 3e 1d 84 61 3e
       -0.9384761 0.39986694 0.4284099 0.22023053
000020 23 f2 04 3e 45 58 c3 3e 89 1b 99 bf b1 09 54 bf
       0.12982993 0.38153282 -1.1961528 -0.8282729
000030 6b 4d a3 3e e8 78 64 bf ae 2c 88 3e 1e 3c 9a 3e
       0.31895003 -0.8924699 0.26596588 0.3012399
000040 5c c4 b0 3e 00 df 4d 3e 27 16 95 3e 33 35 ba 3e
       0.3452481 0.20104599 0.29118463 0.36368713
000050 99 3f 97 3e 2a 4a 41 3e 2b 0e 51 bf 77 88 c3 bc
       0.2954071 0.18875948 -0.81662244 -0.023868782
000060 6e 28 f8 3e 68 d7 b5 3e 38 a1 9e 3e 6d 22 db 3b
       0.48468345 0.35515904 0.30982375 0.0066874535
000070 16 fc 1d 3e 9a b1 1e bf 02 f8 5f bf ef f3 53 bf
       0.15428194 -0.6198975 -0.87487805 -0.8279409
000080 d5 fd 91 3d 04 9d 8c bf c2 13 93 3e db 4b a2 be
       0.07128493 -1.0985417 0.28726012 -0.31698498
000090 3c be 6c 3e 1f 80 f1 3e be c8 2c bf f8 ae 72 3e
       0.23119444 0.4716806 -0.6749381 0.23699558
0000a0 a0 f0 76 3e 02 65 17 3f 63 61 98 be 9e d0 2d 3e
       0.24115229 0.591385 -0.297618 0.16974112
0000b0 f5 8f 67 bf 5d 99 cc 3e 9f 8a af 3e 9e 45 85 3e
       -0.90454036 0.39960757 0.34285447 0.26029676
0000c0 8e 48 1f bf 70 30 f6 3e a3 1e 16 bf 5d 6f 90 3d
       -0.62220085 0.4808383 -0.586405 0.07052491
0000d0 e2 93 c0 3e 85 e5 9d be 44 f8 8c 3e 05 dd 79 3e
       0.37612826 -0.30839172 0.27533162 0.24400719
0000e0 34 b3 a7 3e 55 04 92 3d 67 d7 df 3e 64 1e ad 3e
       0.3275391 0.071297325 0.43719026 0.3381225
0000f0 96 64 75 3e ea 05 98 3e 31 0e a2 be 5c 77 98 3e
       0.23964152 0.29692012 -0.31651452 0.29778564
000100 7c 32 90 3e e8 b9 6d 3c f7 94 87 3e 4d 81 aa bc
       0.28163517 0.014509656 0.2648084 -0.020813609
000110 cb 34 40 bf d5 7f 04 3e 5e c3 a6 3e 1c 30 f9 be
       -0.75080556 0.12939389 0.32570928 -0.48669517
000120 d6 ff bf 3e c3 cf 56 bf 6e 44 de 3d f7 83 aa be
       0.37499875 -0.8391077 0.10852896 -0.33303806
000130 f3 6f e1 3d f1 40 ae bf f9 0c 86 3e 0c dc 4a bf
       0.11007681 -1.3613569 0.26181772 -0.79242015
000140 9b 19 a0 bf 0b a8 b2 3e a1 47 25 3e 21 0f 40 bf
       -1.2507814 0.34893832 0.16140606 -0.75023085
000150 74 22 05 bf a5 2d 8d 3e fb 41 95 3e 5f 93 94 3e
       -0.52005696 0.27573887 0.29151902 0.29018685
000160 d6 86 dd be b3 bc f8 be 4c a3 09 3f 14 26 cf 3e
       -0.43266934 -0.48581466 0.53764796 0.4045874
000170 7d b1 bd 3e 04 69 21 3e 1d 8f 98 3e 58 70 42 3e
       0.37049475 0.15762717 0.29796687 0.18988168
000180 18 ec 8a 3e 35 d3 a1 3e b8 51 a4 3e 9f 68 0a bf
       0.2713325 0.3160645 0.32093596 -0.5406589
000190 95 46 87 bf b6 21 d8 3e 8a 8d f7 3d 1a 0c 06 bf
       -1.0568415 0.4221322 0.12087543 -0.52362216
0001a0 07 48 f4 be c6 ef eb 3e f2 33 14 bf c6 31 78 3e
       -0.47711203 0.4608137 -0.5789176 0.24237737
0001b0 c6 f1 12 bf c9 5b 8f bf 6e 33 dc bd c3 97 d0 be
       -0.57400167 -1.1199886 -0.10751997 -0.40740785
0001c0 02 11 85 3e eb 50 b7 3e 74 97 35 3d 39 26 34 be
       0.25989538 0.35803923 0.04433389 -0.17592706
0001d0 c5 a8 85 3e f3 df d1 3e d2 93 9f 3e 44 53 a1 3e
       0.26105323 0.40991172 0.31167465 0.3150884
0001e0 99 b9 32 bf 66 40 46 bf 20 9a 1b bf 05 ba aa 3e
       -0.6981445 -0.77442014 -0.6078205 0.33345047
0001f0 58 de a5 3e d5 e3 c7 be 0c fa 3b bf 1e 34 4c 3e
       0.32396197 -0.3904101 -0.73428416 0.19941756
000200 34 b4 c8 be 4c b1 db 3e 21 c5 8c 3e 2b 05 1b bf
       -0.39199984 0.42908704 0.27494147 -0.6055476
000210 ee f1 f8 be 2c 30 7e 3d 42 e2 f3 be 40 c5 03 bf
       -0.48622078 0.06205766 -0.4763356 -0.51472855
000220 a0 f1 b3 3e 2f b0 bb 3e 13 1b 7e 3e 52 69 92 bf
       0.35145283 0.36657855 0.24815015 -1.1438391
000230 d3 1d 9b be c6 70 26 3e 85 25 47 bf ea 4d ad 3e
       -0.30296192 0.16253957 -0.77791625 0.33848506
000240 f2 6b 04 bf 2b 3f 66 3e 97 9a 61 bf 11 50 9b 3e
       -0.5172721 0.22485034 -0.8812651 0.30334523
000250 62 e2 6d 3e b6 dc 7c bf 10 f4 b3 be 0d 2b 11 bf
       0.2323089 -0.9877428 -0.35147142 -0.56706315
000260 5f 23 cb bd 9d 7f 08 bf f2 e6 4c 3e 8f ec 9a 3e
       -0.09918856 -0.5331972 0.20009974 0.30258605
000270 f3 d8 61 bf 79 d0 e7 3d 16 94 e5 3d 5e ef c0 3e
       -0.88221663 0.1131906 0.11209886 0.37682623
000280 57 ac 7a 3e 97 b9 23 3e c2 75 2f 3e 30 d2 d4 3c
       0.24479805 0.15988766 0.17134765 0.025979131
000290 02 14 9f be 36 74 a4 3e 00 98 3a 3e d8 2e c7 be
       -0.31069952 0.32119912 0.18222046 -0.38902926
0002a0 82 f7 2f bf 55 b1 8c 3e d1 4c ee be 7e 74 6d 3c
       -0.6873704 0.27479044 -0.4654298 0.014493106
0002b0 1d fc e3 3e ea 53 b0 3e 02 22 f2 3e 08 93 9f bf
       0.44528285 0.3443902 0.4729157 -1.2466745
0002c0 0c 32 32 bf e7 b3 84 bf ec 20 5c 3e 32 52 3a bf
       -0.69607615 -1.0367402 0.21496934 -0.7278167
0002d0 e9 01 8b bf e2 f0 96 be a1 4d 2f bf 47 80 03 3f
       -1.0859958 -0.29480654 -0.6847783 0.5136761
0002e0 d9 13 54 be a9 85 66 bf 16 99 24 3e d8 a5 9d bf
       -0.20710696 -0.900477 0.16074023 -1.2316236
0002f0 48 ce a0 3e 33 73 d3 3e 93 0b 9f 3e 1a 76 ef be
       0.3140738 0.41298828 0.31063518 -0.46769792
000300 eb 84 e1 3e b8 47 c1 3d a5 fa 9d 3e cb 7e b5 3e
       0.4404672 0.094375074 0.3085529 0.35448298
000310 5d 50 a7 3e a2 b0 9d 3e ab 17 40 bf 17 be 6a bf
       0.326785 0.30798823 -0.75036114 -0.91696304
000320 0d 4b ae 3e 22 14 d3 3d 5e a7 e6 3e 26 66 64 bf
       0.34041634 0.103065744 0.45049566 -0.89218366
000330 c6 02 2a 3e 5b bf ef 3e 72 7c 8e 3e da 35 b2 bf
       0.1660262 0.4682568 0.2782932 -1.3922684
000340 37 d0 56 3e d3 72 aa 3e 20 89 20 bf fc 2a 1f 3e
       0.20977865 0.3329073 -0.62709236 0.15543741
000350 f1 20 c2 3e 01 15 a0 bf 74 eb f7 3e 69 4d a0 3e
       0.37915757 -1.250641 0.48421824 0.3130906
000360 8e 2b 00 bf bd bb e0 3d f1 72 b0 3e 19 cb df 3e
       -0.5006646 0.10973308 0.34462693 0.4370964
000370 aa a7 3e bf 15 d9 09 bf 83 d0 65 bf b3 14 a1 3e
       -0.74474585 -0.53846866 -0.8977129 0.31461105
000380 97 bf 8f 3e 86 ee 8e 3e 34 98 f1 3e 59 26 a7 3e
       0.2807586 0.27916354 0.47186434 0.32646444
000390 58 1a 9c 3e 15 71 72 3e 01 48 93 3d 6d 36 00 bf
       0.3048885 0.2367595 0.07191468 -0.5008305
0003a0 a9 74 16 bf 19 db 22 bf e6 d5 2a 3d 46 18 5b 3d
       -0.5877176 -0.63615566 0.041707896 0.053489946
0003b0 eb e4 92 3e f1 3d f3 3e 14 2c f9 3e 59 48 83 3e
       0.28690276 0.47508195 0.4866644 0.25641134
0003c0 ff 08 fb 3e ed 16 51 3e 02 d6 94 3e 68 90 b1 3e
       0.490303 0.20418902 0.29069525 0.34680486
0003d0 74 2f 83 3e 3d 4f 90 3e 3d 3f d0 3e 77 70 df 3e
       0.2562214 0.28185454 0.40673247 0.4364049
0003e0 8f ed 91 3e a1 29 95 bf da 81 0e bf 05 38 c4 3e
       0.28501555 -1.1653329 -0.5566689 0.3832399
0003f0 e8 15 b8 be dd ef 8d 3e 86 a3 cd be 58 39 e1 3e
       -0.35954213 0.27722064 -0.4016382 0.43989062

bias f4 [2]
000000 38 39 a5 3e fc 5c 8c 3e
       0.32270217 0.2741469
