models/CartPole-v0_best.pt (torch, 10840 bytes, 4 tensors)

weight f4 [256, 4]
0	0x3eb3674c	0.35039747
1	0x3ea3ab36	0.3196656
2	0xbf03781d	-0.51355153
3	0x3eed2f36	0.46325082
4	0x3de27d5e	0.11059068
5	0x3e4d64c2	0.20057967
6	0xbd4c1300	-0.049822807
7	0xbe28c8cb	-0.16482846
8	0x3e5dfa9e	0.21677634
9	0x3ecffab9	0.40620974
10	0x3f7061b1	0.93899065
11	0x3f53041a	0.82428133
12	0x3e5a9460	0.21345663
13	0xbe88ceb7	-0.2672021
14	0x3e894a7f	0.26814649
15	0xbe9ac1d7	-0.30226013
16	0xbea74cb4	-0.32675707
17	0xbe739800	-0.23788452
18	0xbf8a38ad	-1.0798546
19	0xbf2664fb	-0.64997834
20	0xbf11ab29	-0.56901795
21	0x3ef080b5	0.46973196
22	0x3eb35e49	0.3503287
23	0xbdd29278	-0.10281843
24	0x3e672f8f	0.22576736
25	0xbd14d293	-0.03633363
26	0x3f028ed1	0.5099917
27	0xbdcda558	-0.100413024
28	0xbd987172	-0.07443513
29	0xbe3313f3	-0.17488079
30	0x3e9d1a54	0.3068415
31	0xbda67b9b	-0.081290446
32	0xbf3bba24	-0.73330903
33	0xbe3bad03	-0.18327717
34	0x3f9906b3	1.195517
35	0x3e9b8e1e	0.30381864
36	0xbd686f44	-0.056746736
37	0x3eb3d278	0.35121512
38	0xbeb92dbc	-0.36167705
39	0x3df1c439	0.118050046
40	0x3e46e6f0	0.19424033
41	0xbeb94350	-0.36184168
42	0xbe8769d1	-0.2644792
43	0xbe531c4b	-0.20616262
44	0x3f09ccd6	0.5382818
45	0xbea973b8	-0.330961
46	0xbedc76b2	-0.43059307
47	0x3e05467e	0.13015172
48	0x3e9208ed	0.28522435
49	0x3e9232b1	0.285543
50	0xbd55cbf4	-0.052196458
51	0x3eb9449e	0.36185163
52	0x3f6616b6	0.89878404
53	0x3e8fc731	0.28081658
54	0xbf7b5515	-0.981767
55	0xbe6349a6	-0.22196063
56	0xbe3dd137	-0.1853684
57	0xbd54ab89	-0.0519214
58	0x3e09181c	0.13388103
59	0xbea413ce	-0.3204636
60	0xbee7f2e5	-0.453025
61	0x3c0f38ce	0.008741571
62	0xbf876d3a	-1.0580208
63	0xbf20f05d	-0.62866765
64	0x3ed1f087	0.4100382
65	0x3d04a9d5	0.032388527
66	0x3f503ece	0.8134583
67	0x3f4c6f6f	0.79857534
68	0xbc0ccc79	-0.008593672
69	0x3d652846	0.05594661
70	0x3e31a4f0	0.17348075
71	0x3ef5099a	0.47858888
72	0x3ed87186	0.42274112
73	0xbd05efdb	-0.032699447
74	0x3c56f0bb	0.013118918
75	0xbd2618b7	-0.040550914
76	0xb9af5727	-0.00033443535
77	0x3ecb4872	0.3970371
78	0x3e855012	0.2603765
79	0x3d0b1fbd	0.033965815
80	0x3e3d0b42	0.18461326
81	0xbd036528	-0.032078892
82	0xbdbb8053	-0.09155335
83	0xbea283ca	-0.31741172
84	0xbec66f0d	-0.387566
85	0xbe10ccbb	-0.14140598
86	0xbe6abc20	-0.22923326
87	0x3e5d8b31	0.21635129
88	0x3e47f73e	0.19527909
89	0x3d8f68d9	0.0700242
90	0x3df03514	0.11728874
91	0x3d0d2e53	0.034468006
92	0xbe2a0548	-0.16603577
93	0xbe2db211	-0.16962458
94	0x3e97e09d	0.29663554
95	0x3d3ee8bf	0.046608683
96	0xbf721126	-0.94557416
97	0xbe2c3e31	-0.16820599
98	0x3f8d6a97	1.1048154
99	0x3ef9c56f	0.48783442
100	0xbe96d457	-0.29458877
101	0x3ef64d99	0.48106077
102	0x3e88a039	0.2668474
103	0xbf0b885b	-0.54504937
104	0x3ec4e89c	0.38458717
105	0x3ed5e8a7	0.41779062
106	0x3f17bdd1	0.5927401
107	0x3f1d0a2e	0.6134366
108	0x3ee7dc80	0.45285416
109	0x3e86816e	0.26270622
110	0x3f3c1380	0.73467255
111	0x3f2203ff	0.6328735
112	0xbf4c663d	-0.79843503
113	0xbe886e6e	-0.2664675
114	0x3f53e495	0.82770663
115	0x3ec676ef	0.38762614
116	0xbeae73d6	-0.3407275
117	0x3ebbd1fe	0.3668365
118	0x3f71b9e3	0.94424266
119	0x3f5c0c01	0.85955817
120	0x3eb83989	0.35981396
121	0x3ea02179	0.31275538
122	0x3f230de1	0.6369305
123	0xbeb921fa	-0.36158735
124	0xbeb6bcea	-0.35691005
125	0x3f2edaec	0.683028
126	0x3f54b96d	0.8309544
127	0x3f6d968f	0.9280786
128	0x3ee67a80	0.45015335
129	0x3dde9213	0.10867705
130	0xbcb41235	-0.021981338
131	0x3eb0478a	0.3442958
132	0x3e9cc2c0	0.30617332
133	0x3c03be91	0.00804104
134	0x3ee75b37	0.4518678
135	0xbe874bc5	-0.26424995
136	0xbe0b8340	-0.13624287
137	0xbe7fddfd	-0.24987026
138	0x3d893b88	0.06700808
139	0x3d844484	0.06458381
140	0xbe5d1238	-0.21588981
141	0x3d8b8391	0.06812204
142	0x3e2b9210	0.16754937
143	0xbe3a0d94	-0.18169242
144	0x3ed79a3a	0.42109853
145	0x3d3bccce	0.045849614
146	0xbf224f76	-0.634025
147	0xbf4d38fc	-0.80165076
148	0xbe839507	-0.25699636
149	0x3e9b95e2	0.3038779
150	0x3f2a148d	0.6643761
151	0xbe99321c	-0.29921043
152	0xbd1f1123	-0.038834702
153	0xbe630564	-0.22170025
154	0xbe271c5f	-0.16319416
155	0xbe86a3b5	-0.26296774
156	0xbe4da39b	-0.20081942
157	0xbe34ea0f	-0.17667411
158	0x3e8a5f8f	0.2702603
159	0x3deeb188	0.11654955
160	0xbb1337fe	-0.0022463794
161	0x3e851fd5	0.26000848
162	0xbeae7044	-0.34070027
163	0x3eb1292d	0.34601727
164	0xbb804833	-0.003914857
165	0x3e9aecc1	0.30258754
166	0x3ed58d12	0.4170919
167	0x3c9f7e65	0.01946945
168	0xbb8e2d84	-0.004338922
169	0x3e70a50e	0.23500463
170	0x3f05ee30	0.5231657
171	0xbe043342	-0.12910178
172	0xbdec39f4	-0.11534491
173	0xbe14ea73	-0.1454256
174	0xbf99e400	-1.2022705
175	0xbe98f59e	-0.2987489
176	0x3f11d201	0.56961066
177	0x3f0aa6fb	0.5416104
178	0xbef00c88	-0.4688456
179	0xbe98a7df	-0.29815575
180	0x3ed23c63	0.41061696
181	0xbe5d51d5	-0.21613248
182	0xbe7ae4eb	-0.24501388
183	0xbe38c0e4	-0.18042332
184	0x3eade2ce	0.339621
185	0xbd8980f6	-0.067140505
186	0xbf99058c	-1.1954818
187	0xbf247d62	-0.6425382
188	0xbc925580	-0.017863035
189	0x3d2c60b0	0.042084396
190	0x3b8bbf80	0.004264772
191	0xbc8fa460	-0.017534435
192	0x3d9f6dc0	0.07784605
193	0xbe2990b6	-0.16559109
194	0x3ef4f0c0	0.47839928
195	0xbe35a8d8	-0.1774019
196	0x3ee44f29	0.44591644
197	0x3eb939a6	0.36176795
198	0x3f0043ae	0.5010327
199	0x3f379884	0.71717095
200	0xbf03a656	-0.51425683
201	0xbedc998d	-0.430859
202	0x3ea81453	0.32828006
203	0xbe92ae06	-0.28648394
204	0xbeefe392	-0.4685331
205	0xbef996f8	-0.48747993
206	0xbe197615	-0.14986451
207	0x3ed798ff	0.42108914
208	0x3e8163b5	0.25271383
209	0x3e9a5889	0.30145672
210	0x3d946a2b	0.072468124
211	0x3d66d97f	0.056359764
212	0xbe95aa47	-0.29231474
213	0x3d68596d	0.056725908
214	0xbec805cc	-0.39066923
215	0x3d245e7c	0.04012917
216	0xbef0a157	-0.46998093
217	0x3ebd5892	0.36981636
218	0xbea4d252	-0.32191712
219	0x3e95d8d6	0.29266995
220	0x3f1c0a95	0.60953647
221	0xbe3507e4	-0.17678791
222	0xbeb611ac	-0.35560358
223	0x3e9e64c4	0.30936253
224	0xbedc2b47	-0.43001768
225	0x3f111123	0.56666774
226	0x3f8fccd1	1.123438
227	0x3f21e7d2	0.63244355
228	0xbe82b330	-0.25527334
229	0x3e0459d0	0.12924886
230	0xbc871840	-0.016491055
231	0x3da6cb58	0.081442535
232	0x3eb48482	0.35257345
233	0x3d79d9fd	0.060998905
234	0x3ed723b2	0.4201942
235	0x3d95e341	0.07318736
236	0x3e8933a2	0.26797205
237	0x3e863f7e	0.26220316
238	0xbe199aee	-0.15000507
239	0x3e71b8a6	0.23605594
240	0x3c781e54	0.01514395
241	0xbeac5fbb	-0.33666787
242	0xbf1e6a25	-0.61880714
243	0xbf1e6135	-0.61867076
244	0xbf0a047d	-0.539131
245	0x3e8e34d0	0.27774668
246	0x3f9acde7	1.2094086
247	0x3f48e81f	0.7847919
248	0xbeeb7e3a	-0.4599474
249	0x3e672c12	0.22575405
250	0xbe493b63	-0.1965156
251	0x3b23816c	0.0024948968
252	0x3f009bc9	0.5023771
253	0xbee3696c	-0.44416368
254	0xbea5dff3	-0.32397422
255	0x3eb8d774	0.36101878

bias f4 [256]
0	0x3f1d2644	0.61386514
1	0x3f37ac89	0.7174764
2	0xbe17cee9	-0.14825024
3	0x3ecbe484	0.3982278
4	0x3c9d0ab0	0.019170135
5	0xbe872252	-0.26393372
6	0x3ebb790b	0.36615786
7	0xbee07e5a	-0.438464
8	0xbe3e8740	-0.18606281
9	0x3ef4114c	0.47669446
10	0x3f086755	0.5328267
11	0xbd7dcb6e	-0.061961584
12	0x3f04adce	0.51827705
13	0xbe00e2d7	-0.12586533
14	0x3f20fa5c	0.6288202
15	0x3e00af65	0.12566908
16	0x3bacd868	0.005274821
17	0xbda5082d	-0.080582
18	0x3f1d4ce5	0.61445457
19	0x3f3dfd81	0.7421494
20	0x3f549756	0.8304342
21	0x3f69168a	0.91050017
22	0x3f461d72	0.7738868
23	0x3f069b1d	0.52580434
24	0xbe36ca24	-0.17850548
25	0xbd887b19	-0.06664104
26	0xbe6fbbdd	-0.23411508
27	0xbd87f2b8	-0.06638092
28	0xbea2f1c4	-0.31825078
29	0xbe6e6b9e	-0.2328324
30	0x3f4239de	0.7586955
31	0xbced3dfd	-0.028960222
32	0x3f3a6416	0.7280897
33	0x3f38a9e4	0.7213423
34	0x3f1e3ae8	0.61808634
35	0x3f5fe1cc	0.87453914
36	0xbeeb7af4	-0.45992243
37	0x3e0994f3	0.13435726
38	0x3efe33b0	0.4964881
39	0x3f3cfd86	0.73824346
40	0x3edcaddd	0.43101397
41	0x3ef10a76	0.47078294
42	0x3f413a18	0.7547927
43	0xbdb0d56f	-0.08634459
44	0xbede248a	-0.43387252
45	0xbef942e6	-0.48683852
46	0xbe474aa5	-0.19462068
47	0xbe5ae0bc	-0.21374792
48	0x3ef47532	0.47745663
49	0x3dc8ca39	0.09804196
50	0xbe388126	-0.18018016
51	0xbee4c4c7	-0.4468138
52	0x3f2a1a77	0.6644663
53	0x3eef189e	0.4669847
54	0xbe9b3e4f	-0.30320975
55	0x3f65c854	0.897588
56	0xbe0d7fb5	-0.13818248
57	0xbee144fa	-0.43997937
58	0x3f23f69d	0.64048177
59	0x3ef24b28	0.47322965
60	0x3e9855df	0.29753014
61	0xbcb31c58	-0.021864101
62	0x3f28739c	0.65801406
63	0x3e8943a3	0.26809415
64	0xbe4295bc	-0.19002432
65	0xbe8b0c7e	-0.27157968
66	0x3f40a33b	0.7524907
67	0x3eed1158	0.46302295
68	0xbea8dbe2	-0.32980257
69	0x3ed2dc2e	0.4118361
70	0xbe33a2d9	-0.1754259
71	0xbe11da6b	-0.14243476
72	0xbde0a425	-0.10968808
73	0x3f5da7de	0.8658427
74	0xbeeaedb2	-0.45884472
75	0xbea3e8c1	-0.32013515
76	0x3f0f813a	0.5605656
77	0x3ecda09b	0.40161595
78	0xbe97a78c	-0.29620016
79	0xbeaa5234	-0.3326584
80	0x3f137088	0.57593584
81	0xbc52f79c	-0.0128764175
82	0xbe681df8	-0.22667682
83	0xbe760470	-0.2402513
84	0x3e461e4f	0.193475
85	0x3edb7076	0.42859238
86	0x3f28fb02	0.6600801
87	0xbe02f1d6	-0.12787566
88	0xbe7f733a	-0.24946299
89	0x3f2a70f8	0.66578627
90	0x3ee179e7	0.44038317
91	0x3f38fe74	0.72263265
92	0xbe2f5aeb	-0.17124526
93	0x3e895d66	0.2682907
94	0x3f041788	0.51598406
95	0x3f08959f	0.53353304
96	0xbea067ee	-0.31329292
97	0xbede13b4	-0.43374407
98	0x3ee91be8	0.45529103
99	0xbc02c321	-0.007981093
100	0x3f2139cc	0.62978816
101	0x3edc64ed	0.4304575
102	0x3ee916bc	0.45525157
103	0xbe7d2629	-0.24721588
104	0x3f0e0a63	0.554846
105	0x3f42eefc	0.7614591
106	0x3ef169c8	0.47151017
107	0x3ede494d	0.434153
108	0x3f591284	0.8479388
109	0x3f082a71	0.5318976
110	0xbdf63a80	-0.12022877
111	0x3d6aacaf	0.05729359
112	0x3f2cd5b8	0.6751361
113	0x3f0d719a	0.5525147
114	0x3e0b5073	0.13604908
115	0x3f1d4ddc	0.6144693
116	0x3ecbacc5	0.3978025
117	0x3d34292a	0.04398457
118	0xbd18540a	-0.03718952
119	0x3f1af284	0.605263
120	0xbe807396	-0.25088185
121	0xbd6509a4	-0.055917397
122	0x3f64232d	0.89116174
123	0xbe1b9cc1	-0.15196516
124	0x3ee02e2c	0.43785226
125	0x3f4954a3	0.7864477
126	0x3ebe95eb	0.37223753
127	0x3f3814da	0.71906817
128	0x3f0f7313	0.56034964
129	0xbed377e2	-0.413024
130	0xbe5dbd51	-0.2165425
131	0x3f4c7b8a	0.79876006
132	0x3f2b8018	0.6699233
133	0xbe1becb5	-0.15227015
134	0x3f37751c	0.7166307
135	0x3f533527	0.8250298
136	0x3f561aee	0.8363484
137	0x3e5ec651	0.21755339
138	0xbe795ce0	-0.24351835
139	0x3c5ce3c5	0.013482039
140	0x3eeb1556	0.45914716
141	0xbe94933b	-0.29018578
142	0xbe0bb0d9	-0.13641681
143	0xbe5c4375	-0.21510108
144	0x3ec39599	0.3820007
145	0x3ecee85e	0.40411657
146	0x3d24ab8e	0.04020267
147	0x3eb1a8ac	0.34699
148	0xbeff088b	-0.49811205
149	0x3f168d74	0.5880959
150	0x3eebf434	0.4608475
151	0x3f3df829	0.7420679
152	0xbdc827a7	-0.09773188
153	0x3f36c479	0.71393543
154	0x3edeea9c	0.43538368
155	0x3f018aa2	0.5060216
156	0x3d846d6b	0.06466182
157	0x3f283f51	0.65721613
158	0x3f4bf90b	0.79676884
159	0x3d5e47c0	0.054267645
160	0x3ea3ae1c	0.31968772
161	0xbea51759	-0.32244375
162	0x3f5c5e46	0.8608135
163	0x3f42a9b6	0.7604021
164	0x3f670820	0.9024677
165	0xbea97af0	-0.33101606
166	0x3f409d5d	0.7524012
167	0x3f358528	0.70906305
168	0xbe985fd6	-0.29760617
169	0x3f061b1c	0.52385116
170	0x3f3d5692	0.7396022
171	0xbe92b960	-0.28657055
172	0x3f00b0b3	0.5026962
173	0x3f40c0e0	0.75294304
174	0x3f700dc4	0.93771005
175	0x3f5e8b07	0.8693089
176	0xbea172e8	-0.3153298
177	0xbe9541db	-0.29151806
178	0x3efd1fdd	0.49438372
179	0x3e5d6727	0.21621381
180	0x3f3a42f7	0.7275843
181	0x3db68fa0	0.08914113
182	0xbebda8b6	-0.3704278
183	0x3f062c4d	0.5241135
184	0x3f589386	0.846001
185	0x3f2a4c15	0.6652234
186	0x3ebb36ea	0.36565334
187	0x3f4b37f2	0.7938224
188	0xbea5cf1c	-0.32384574
189	0x3eedfc24	0.4648143
190	0x3efc6e11	0.49302724
191	0x3f49f22d	0.78885156
192	0x3f2a1ad9	0.66447216
193	0xbe9b5416	-0.3033759
194	0x3f2bbe4b	0.6708724
195	0xbe09550a	-0.13411346
196	0xbe99ae23	-0.30015668
197	0x3f3b18e7	0.7308487
198	0x3f23d825	0.64001685
199	0x3f082f93	0.5319759
200	0xbd8529d9	-0.065021224
201	0x3efad1aa	0.48988086
202	0xbe43fe71	-0.1914003
203	0x3e8183e6	0.25295943
204	0xbf00d3a5	-0.50322944
205	0x3f66cd90	0.90157413
206	0x3f0381fa	0.51370203
207	0xbe7672c2	-0.24067214
208	0xbeee06ef	-0.46489665
209	0x3f51cad6	0.8195013
210	0x3f045467	0.5169129
211	0x3ed7ae71	0.42125276
212	0xbe3a8213	-0.18213682
213	0xbe4d4d22	-0.20048955
214	0x3f2c9849	0.6741987
215	0xbee88a96	-0.45418233
216	0xbe7ae9b7	-0.24503218
217	0xbd8b42dc	-0.06799862
218	0x3e8c67a7	0.2742283
219	0x3f5c7c04	0.8612673
220	0xbe236e6c	-0.15960091
221	0x3d006233	0.03134365
222	0x3f41c3f5	0.7568963
223	0x3f3dc468	0.7412782
224	0x3f242ae2	0.64127934
225	0x3f567506	0.83772314
226	0x3ec8cc4c	0.39218366
227	0xbf1609a2	-0.5860845
228	0x3f041b8c	0.51604533
229	0x3f56d50a	0.8391882
230	0x3f513e00	0.8173523
231	0xbe9cd294	-0.30629408
232	0x3f01e743	0.507435
233	0x3f136a47	0.5758404
234	0x3f02cf36	0.5109743
235	0x3f42e535	0.7613099
236	0x3f2c49af	0.6729993
237	0x3ed3ad1d	0.41343012
238	0x3f5df770	0.86705685
239	0x3f13dab5	0.57755595
240	0x3f414eee	0.7551106
241	0xbe434cf8	-0.1907233
242	0xbe206977	-0.15665232
243	0x3f1580ef	0.5839986
244	0x3d3e2a03	0.046426784
245	0x3e3e30ca	0.18573299
246	0x3d4a2036	0.049347125
247	0xbcdefb53	-0.02721945
248	0xbe221548	-0.1582843
249	0xbd9e788f	-0.077378385
250	0x3d0b4f05	0.034010906
251	0x3f0d85ce	0.55282295
252	0xbefd64d3	-0.49490985
253	0x3f272aed	0.65299875
254	0x3f1aa4d3	0.6040775
255	0xbe6ecd00	-0.23320389

weight f4 [2, 256]
0	0x3e918ed6	0.28429288
1	0x3e48dc51	0.19615294
2	0xbf0b9d8a	-0.5453726
3	0x3e07c83f	0.13259982
4	0xbe8aac1e	-0.2708444
5	0xbd474718	-0.048651785
6	0x3e44fdfc	0.19237512
7	0xbc92bb96	-0.017911714
8	0xbeb0cf7b	-0.34533295
9	0x3e91ad9c	0.28452766
10	0x3e9e5f1b	0.30931935
11	0x3ec52867	0.38507387
12	0x3e2b818b	0.16748635
13	0xbec19e70	-0.3781619
14	0x3e18468f	0.14870666
15	0xbdc7aeaf	-0.09750115
16	0xbe9614e4	-0.29312813
17	0xbd8a9a5b	-0.06767722
18	0x3eaf8dab	0.34287772
19	0x3e8c9d75	0.2746388
20	0x3e9834ff	0.29727933
21	0x3e898f91	0.26867345
22	0x3eb2a702	0.34893042
23	0x3e018aa6	0.12650546
24	0xbec06f71	-0.37585023
25	0x3c581084	0.013187531
26	0xbe9377ee	-0.28802437
27	0xbe881088	-0.26575112
28	0xbe76e5be	-0.24111077
29	0xbef6785b	-0.481387
30	0x3e64e784	0.22353941
31	0xbf3497b7	-0.70544
32	0x3e929edb	0.28636822
33	0x3e7a1086	0.24420366
34	0x3e034526	0.12819347
35	0x3e8f7e02	0.28025824
36	0xbee9e115	-0.45679536
37	0x3e005a20	0.1253438
38	0x3e9db350	0.30800867
39	0x3e590186	0.21191987
40	0x3df14327	0.117803864
41	0x3e5d7b9d	0.21629186
42	0x3e46de30	0.19420695
43	0xbf0b89ff	-0.5450744
44	0xbea1e349	-0.31618717
45	0x3d0aebcb	0.033916276
46	0xbe9b7576	-0.30363053
47	0x3cab4cbc	0.020910613
48	0x3eab39e3	0.33442602
49	0xbe8ec3de	-0.2788381
50	0xbe3036c7	-0.17208396
51	0xbda55f72	-0.080748454
52	0x3e9e8229	0.3095868
53	0x3eae2ae8	0.3401711
54	0x3d81b05a	0.063324645
55	0x3e8914ef	0.26773784
56	0xbf0043b2	-0.50103295
57	0xbcf71bf8	-0.030164704
58	0x3e6ea240	0.23304081
59	0x3e8a2643	0.26982316
60	0x3d2e421f	0.042543527
61	0xbf017337	-0.5056643
62	0x3e997d4e	0.29978412
63	0x3d756574	0.059911206
64	0xbeafe03c	-0.34350765
65	0xbef1052e	-0.47074264
66	0x3e8d4629	0.2759259
67	0x3e5cd322	0.21564916
68	0xbe7a5460	-0.24446249
69	0x3e158788	0.14602482
70	0xbdca9688	-0.09891993
71	0xbf09eb69	-0.5387483
72	0xbf02e1e7	-0.5112595
73	0x3e9699ab	0.29414114
74	0xbc3ffb16	-0.011717578
75	0xbe3f8cd3	-0.18706064
76	0x3e1f413e	0.15552232
77	0x3e640255	0.22266515
78	0xbd1f2e5c	-0.03886257
79	0xbe762a38	-0.24039543
80	0x3ea4673d	0.32110015
81	0xbea32bc7	-0.31869337
82	0xbe44c1d0	-0.19214559
83	0xbf01cde0	-0.50704765
84	0x3c916fac	0.017753445
85	0x3e334f6b	0.17510764
86	0x3eb2de2f	0.34935138
87	0xbead29c2	-0.3382092
88	0xbecb46db	-0.39702496
89	0x3e2f309f	0.17108391
90	0x3dfdab63	0.12386205
91	0x3e6ef54e	0.23335764
92	0xbede4a0f	-0.43415877
93	0x3d3c3a2d	0.04595392
94	0x3ea15f52	0.31518036
95	0x3e95222d	0.29127637
96	0xbf0a8b1f	-0.5411853
97	0x3d7f5476	0.062336408
98	0x3e2ad427	0.16682492
99	0xbec0979b	-0.37615666
100	0x3e90980e	0.2824101
101	0x3ea36644	0.3191396
102	0x3e7e14b0	0.24812579
103	0xbeaebad6	-0.3412692
104	0x3ea84b70	0.32870054
105	0x3ead9a1a	0.33906633
106	0x3e55138a	0.20808235
107	0x3e7de8ab	0.24795787
108	0x3e2a4ed1	0.16631629
109	0x3e8a60ef	0.2702708
110	0xbf024ca9	-0.50898224
111	0xbf2a4eaa	-0.6652628
112	0x3e6cdc1c	0.2313084
113	0x3e47eb6b	0.19523399
114	0x3d962b6a	0.07332499
115	0x3e934f9d	0.28771678
116	0x3e446f96	0.19183192
117	0xbf0cc0f0	-0.549819
118	0xbf11c0d5	-0.56934863
119	0x3ea9e8df	0.3318548
120	0xbe9cae27	-0.30601618
121	0xbf060c79	-0.5236278
122	0x3eacca73	0.33748206
123	0xbe03ee4b	-0.1288387
124	0x3cc73546	0.024317395
125	0x3e41b376	0.18916115
126	0x3dfa2784	0.12214568
127	0x3e98095d	0.29694644
128	0x3e014ef0	0.12627769
129	0x3d62d032	0.05537433
130	0xbf1688c9	-0.5880247
131	0x3e8d9e7c	0.27659976
132	0x3eabae2a	0.33531314
133	0xbeb7ef90	-0.3592496
134	0x3e5f1bd9	0.21787967
135	0x3e81b7a4	0.2533542
136	0x3e737a5d	0.23777147
137	0x3d607766	0.054801367
138	0xbe2c77c9	-0.1684257
139	0xbe6389f2	-0.2222059
140	0x3e208444	0.15675455
141	0x3cf4be8f	0.029876022
142	0xbeced86d	-0.40399495
143	0xbeaeecd8	-0.34165072
144	0x3dd33e4d	0.10314617
145	0x3e025d65	0.1273094
146	0xbf15cacb	-0.5851256
147	0x3dd65be1	0.10466743
148	0xbda04938	-0.07826465
149	0x3db6eff6	0.08932488
150	0x3e66f161	0.22553016
151	0x3e7abc1b	0.24485819
152	0xbd309745	-0.043113012
153	0x3e8334a4	0.256261
154	0x3eafa78d	0.3430752
155	0x3e7d1a15	0.24716981
156	0xbf0c0113	-0.5468914
157	0x3e804545	0.25052848
158	0x3e4ba6f3	0.19887905
159	0xbe63f26c	-0.22260445
160	0x3e4a5a77	0.19761072
161	0xbe8c81c4	-0.27442753
162	0x3ea0edc9	0.31431416
163	0x3e74e4b5	0.2391537
164	0x3e79ed58	0.24406946
165	0xbe5962e2	-0.21229127
166	0x3e7f07b1	0.24905278
167	0x3eae7793	0.34075603
168	0xbee6a32a	-0.4504636
169	0x3ebe208b	0.37134203
170	0x3df95128	0.121736825
171	0xbe4779e1	-0.19480087
172	0x3e107c72	0.14109972
173	0x3e6f5565	0.23372419
174	0x3e57e9fb	0.2108535
175	0x3e8f10f3	0.2794262
176	0xbdf8cc1b	-0.12148305
177	0xbec305c4	-0.38090336
178	0x3e596fcf	0.21234058
179	0xbec4d435	-0.3844315
180	0x3e8aeddf	0.27134606
181	0xbf227abb	-0.6346852
182	0xbecea2fe	-0.40358728
183	0x3ebeea3a	0.37288076
184	0x3e5fe815	0.21865876
185	0x3e409727	0.1880766
186	0x3e953acd	0.29146424
187	0x3e6487e6	0.22317466
188	0xbef41eab	-0.47679648
189	0x3e7f0d55	0.2490743
190	0x3e451468	0.19246066
191	0x3e649b9a	0.22324982
192	0x3e984cea	0.2974618
193	0xbe4b5caa	-0.19859567
194	0x3e8e0fc4	0.27746403
195	0xbea4ea4a	-0.32209998
196	0xbef737d8	-0.48284793
197	0x3e315b12	0.17319897
198	0x3eb3238a	0.34988052
199	0x3e930b2f	0.2871947
200	0xbedd3aff	-0.43209073
201	0x3e4c430f	0.19947456
202	0xbe89a796	-0.2688567
203	0xbe1235d5	-0.14278348
204	0x3d8f5108	0.06997877
205	0x3e799705	0.24374016
206	0x3e3c0e2c	0.18364781
207	0xbef14b8a	-0.47127944
208	0xbe210d26	-0.15727672
209	0x3e6e82f7	0.23292147
210	0x3eac5e2a	0.3366559
211	0x3e13b8e4	0.14425999
212	0xbe5daa73	-0.21647052
213	0xbdee3d1f	-0.11632752
214	0x3e81c42f	0.2534499
215	0x3a4f6780	0.0007911846
216	0xbd188dcb	-0.0372446
217	0xbf0f25ed	-0.55917245
218	0x3d7462d2	0.059664555
219	0x3e88c6b9	0.26714113
220	0xbd5ec9a2	-0.05439151
221	0xbf24529e	-0.64188564
222	0x3e891025	0.2677013
223	0x3e943ec9	0.2895415
224	0x3e4c418d	0.1994688
225	0x3eb854b9	0.36002138
226	0x3d084927	0.03327289
227	0xbeca6634	-0.395311
228	0x3df848b2	0.121232405
229	0x3e65a489	0.22426046
230	0x3e5faa69	0.2184235
231	0xbee387e3	-0.4443961
232	0x3e7abb99	0.24485625
233	0x3e7947cb	0.24343793
234	0x3e130cd2	0.1436036
235	0x3e7b306a	0.24530187
236	0x3e81a065	0.25317684
237	0x3e32a84e	0.17447016
238	0x3e32a236	0.17444691
239	0x3e811dbd	0.25218
240	0x3e95a4ae	0.29227203
241	0xbe964f4a	-0.29357368
242	0xbea913a3	-0.33022794
243	0x3e646f6d	0.2230813
244	0xbef8cd3f	-0.4859409
245	0x3d619854	0.055076912
246	0x3c935ff1	0.017990084
247	0xbd750822	-0.05982221
248	0xbe32788c	-0.17428797
249	0xbe100733	-0.14065246
250	0xbf4109d3	-0.75405616
251	0x3e6a40ab	0.22876231
252	0xbc93955c	-0.018015556
253	0x3e546ef0	0.20745444
254	0x3e79513c	0.24347395
255	0xbeff059f	-0.49808976

bias f4 [2]
0	0x3e738cdb	0.23784201
1	0x3e83ea00	0.25764465
