models/CartPole-v1_best_None.pt (torch, 10880 bytes, 4 tensors)

weight f4 [256, 4]
0	0xbf110672	-0.5665046
1	0x3e851f10	0.2600026
2	0x3e76d8c3	0.24106126
3	0x3f2deda1	0.6794072
4	0xbecae232	-0.39625698
5	0x3eb2f87a	0.34955198
6	0x3c4ec624	0.012620483
7	0x3e3450ad	0.176089
8	0x3e8fcd13	0.28086147
9	0x3cb0fc98	0.021604821
10	0xbe53ed48	-0.20695984
11	0xbe15b507	-0.14619838
12	0xbe64c707	-0.22341548
13	0xbca2f78b	-0.019893428
14	0xbdbc6090	-0.09198105
15	0xbdeb016a	-0.11474879
16	0xbf00e755	-0.50352985
17	0x3c635432	0.013875054
18	0xbe7e23c5	-0.24818332
19	0xbe2ac4ad	-0.16676588
20	0x3e39a875	0.18130668
21	0xbe679ca1	-0.22618343
22	0xbda7ba09	-0.0818978
23	0x3ebbf786	0.36712283
24	0xbda4fc1a	-0.08055897
25	0x3ea1e416	0.31619328
26	0x3efddca7	0.49582407
27	0xbe87e74f	-0.26543662
28	0x3e2ab347	0.16669951
29	0xbea4076b	-0.3203691
30	0x3e8cc5b3	0.27494583
31	0xbe9222e8	-0.28542256
32	0x3ec08ba5	0.3760654
33	0x3f036ded	0.5133961
34	0xbd63e443	-0.05563761
35	0x3e258311	0.16163279
36	0xbe857173	-0.26063117
37	0x3ec6a883	0.3880044
38	0xbe8ec0d0	-0.2788148
39	0x3e71d6a2	0.23617032
40	0xbe4e2094	-0.20129615
41	0x3e514038	0.20434654
42	0x3e1f4c40	0.15556431
43	0x3e6f87a0	0.2339158
44	0x3cb9a412	0.022661243
45	0x3c980939	0.018559085
46	0x3ea5fc4b	0.32419047
47	0x3ec8ea98	0.3924148
48	0xbe78ce8d	-0.24297543
49	0x3e193bec	0.14964265
50	0x3d77101d	0.0603181
51	0x3ecf7b71	0.40523866
52	0x3e8097c8	0.251158
53	0xbe6772a0	-0.2260232
54	0x3ddeab38	0.10872501
55	0xbddf9040	-0.109161854
56	0xbf1bb511	-0.6082316
57	0xbd917aa8	-0.07103473
58	0x3e90ed09	0.28305843
59	0xbe4456e2	-0.19173768
60	0xbef6c328	-0.48195767
61	0xbd5ab8ca	-0.053398885
62	0xbe8f7f12	-0.28026634
63	0xbe89c0f9	-0.2690504
64	0x3eee4a21	0.4654093
65	0xbe3c08dc	-0.18362755
66	0xbe51c6f1	-0.20486046
67	0x3e9191b8	0.28431487
68	0x3e437095	0.19085915
69	0xbe2f4a10	-0.17118096
70	0x3f0fb0c8	0.5612912
71	0x3f0838c2	0.53211606
72	0xbe0d57ce	-0.13803026
73	0x3eaafeb2	0.33397442
74	0x3eec3516	0.4613425
75	0xbdc1fd00	-0.09472084
76	0xbf050dbf	-0.519741
77	0x3ef64999	0.48103026
78	0x3dab0542	0.08350612
79	0x3e48a975	0.19595893
80	0x3d1785fd	0.036993016
81	0x3efe6263	0.49684438
82	0xbf0beeab	-0.54661053
83	0xbf08e4af	-0.53473943
84	0xbf12c7cf	-0.57336134
85	0xbde6400f	-0.11242687
86	0xbe854302	-0.26027685
87	0xbe889fd4	-0.2668444
88	0xbf276e8f	-0.65403074
89	0xbf0cafdc	-0.5495584
90	0x3eb1b91f	0.3471155
91	0x3f1d8c96	0.6154264
92	0xbe32d73f	-0.17464922
93	0xbec1117c	-0.37708652
94	0x3f581d23	0.8441946
95	0x3f2cc198	0.674829
96	0xbe603991	-0.2189696
97	0xbe6de35d	-0.23231263
98	0xbf4bc2bf	-0.79594034
99	0xbf116931	-0.56801134
100	0xbdc877e3	-0.097884916
101	0x3e1cf213	0.15326719
102	0xbeea5c21	-0.45773414
103	0xbf2cc685	-0.67490417
104	0xbf0d4d13	-0.5519573
105	0x3c61df68	0.013786174
106	0x3d2adc73	0.041714143
107	0xbe101344	-0.14069849
108	0xbf1479d4	-0.57998395
109	0xbe4fdf56	-0.2030004
110	0x3ec0a2be	0.37624162
111	0x3f254af6	0.64567506
112	0xbe5569e4	-0.20841175
113	0x3e1366d4	0.14394695
114	0x3e843364	0.25820458
115	0xbc9ee4c0	-0.019396186
116	0x3e9f4653	0.3110834
117	0xbe9445af	-0.28959414
118	0x3e98885a	0.29791528
119	0xbe704c37	-0.23466574
120	0x3e435661	0.1907592
121	0x3d9f120d	0.07767115
122	0x3e6ce794	0.23135215
123	0x3d0686a7	0.03284326
124	0x3e91966f	0.28435084
125	0xbed339a9	-0.4125493
126	0xbe93e827	-0.28888056
127	0xbdc3078f	-0.09522926
128	0x3ea83375	0.3285176
129	0x3e38b888	0.18039143
130	0xbf4a69f0	-0.790679
131	0xbef72628	-0.48271298
132	0xbe4424d4	-0.19154674
133	0xbea6a14c	-0.32544935
134	0x3e899d94	0.26878035
135	0x3e444773	0.1916788
136	0xbebce1f7	-0.36891147
137	0xbea512d0	-0.32240915
138	0xbe99d6ff	-0.30046842
139	0x3e06731e	0.13129851
140	0xbebea66b	-0.37236342
141	0x3d97b6e2	0.07407929
142	0x3f042846	0.5162395
143	0x3e44feb6	0.1923779
144	0xbd4330a1	-0.047653798
145	0xbf0f582c	-0.55993915
146	0x3ebafbda	0.36520272
147	0x3e6c64a9	0.23085274
148	0x3f2cdc13	0.67523307
149	0x3ea566d9	0.3230503
150	0xbf205e0d	-0.6264351
151	0xbe95a3ac	-0.29226434
152	0x3e07588b	0.1321737
153	0xbeacceb7	-0.3375146
154	0x3eaeee02	0.3416596
155	0xbeada6d2	-0.33916336
156	0x3e6ab62f	0.2292106
157	0x3eb53547	0.3539221
158	0xbd0f1803	-0.03493501
159	0xbf0a653d	-0.5406073
160	0xbe7aa715	-0.24477799
161	0x3ef14d80	0.4712944
162	0x3ee37643	0.44426164
163	0x3eca99a7	0.39570352
164	0xbe841532	-0.2579742
165	0x3d375876	0.044762097
166	0xbe830a98	-0.2559402
167	0xbddc5b4c	-0.10759601
168	0xbf163e9e	-0.58689296
169	0x3d558322	0.05212701
170	0x3f266d3e	0.6501044
171	0x3f3ee56f	0.7456884
172	0x3f2c5607	0.6731877
173	0x3e98db96	0.2985503
174	0xbf4b8112	-0.7949382
175	0xbe05e0f6	-0.13074097
176	0xbed8e0ac	-0.4235891
177	0x3ea13c6f	0.3149142
178	0x3ea81a03	0.32832345
179	0xbe94f0e3	-0.29090032
180	0x3eda98d5	0.42694727
181	0x3c51fec3	0.012817088
182	0x3e1e32e5	0.15449102
183	0x3bba4c76	0.0056853844
184	0xbe48bc7d	-0.19603153
185	0x3e469f67	0.19396745
186	0x3eb01a3a	0.3439501
187	0x3e2b9077	0.16754328
188	0x3ef9bf81	0.48778918
189	0xbe20f91b	-0.15720026
190	0xbedf0e3f	-0.43565556
191	0x3ebdb7e3	0.37054357
192	0x3e2f4494	0.17116004
193	0xbe5606c4	-0.20901018
194	0x3e4eb41c	0.20185894
195	0x3e893737	0.26799938
196	0xbf07e0bc	-0.5307729
197	0xbdbfe440	-0.09369707
198	0x3edc043c	0.4297198
199	0xbd1048ec	-0.035225794
200	0xbe3c98a1	-0.18417598
201	0xbe8ef8a6	-0.2792408
202	0xbe9e4817	-0.30914375
203	0xbec75abb	-0.3893641
204	0x3e8baf74	0.27282298
205	0x3ea2baa1	0.31783012
206	0x3ed6dd2d	0.4196562
207	0x3e976a5f	0.29573342
208	0x3d258ad4	0.0404156
209	0x3ec42bce	0.3831467
210	0x3ea7abf1	0.32748368
211	0xbe5a7c97	-0.2133659
212	0x3ee9b2b6	0.45644158
213	0xbecbfd2d	-0.39841595
214	0x3eaf6467	0.34256288
215	0x3e80c6e8	0.25151753
216	0xbf06b959	-0.5262657
217	0xbe276db1	-0.16350438
218	0xbd797ed7	-0.06091198
219	0xbe183420	-0.14863634
220	0xbee9033c	-0.4551028
221	0xbedb9631	-0.42888024
222	0x3f0a738e	0.5408257
223	0x3e18b11b	0.1491131
224	0x3e576e65	0.21038206
225	0x3ee8de37	0.45482036
226	0x3f07b671	0.5301276
227	0xbda3f577	-0.08005803
228	0x3e7fbe85	0.24975021
229	0xbe9e1c96	-0.30881184
230	0xbb814c8b	-0.003945892
231	0x3e8481bc	0.2588023
232	0xbebf8b0c	-0.37410772
233	0xbe299869	-0.16562046
234	0xbd9c5b56	-0.076346084
235	0xbe2bf352	-0.16792038
236	0xbe77815c	-0.2417044
237	0xbeeaaf6d	-0.45836964
238	0xbef04dac	-0.4693426
239	0x3e8534e7	0.26016924
240	0x3e6e21d8	0.23255098
241	0xbd4985e1	-0.049199942
242	0x3e34e530	0.17665553
243	0x3b8fefae	0.0043925857
244	0xbea66671	-0.32500032
245	0xbd01185c	-0.03151737
246	0x3ec38778	0.38189292
247	0xbe87d876	-0.26532334
248	0xbf0d0e98	-0.55100393
249	0xbe47dc01	-0.19517519
250	0x3c339d12	0.010962741
251	0x3f0e8997	0.55678695
252	0xbe9259ce	-0.2858414
253	0x3ed0a924	0.40754044
254	0xbe02c9e9	-0.12772335
255	0x3ed69045	0.41906944

bias f4 [256]
0	0xbd2d9e1d	-0.042387117
1	0x3f0d70e7	0.552504
2	0x3f03437e	0.5127486
3	0x3f11d7e2	0.56970036
4	0x3f3efe4c	0.74606776
5	0x3e9ff004	0.31237805
6	0x3ebfbb95	0.374478
7	0x3ebaa046	0.36450404
8	0x3f3efa3c	0.7460058
9	0x3f484395	0.7822812
10	0xbebac380	-0.3647728
11	0xbd30d5ae	-0.04317253
12	0x3f451513	0.7698528
13	0xbea7b19e	-0.327527
14	0x3e5cdfcb	0.21569745
15	0x3f1f1a11	0.6214915
16	0x3f00813d	0.501972
17	0xbe9217a2	-0.28533655
18	0x3f2f345b	0.68439263
19	0x3f0714db	0.527662
20	0xbe9c5cd0	-0.3053956
21	0x3ecb70f8	0.39734626
22	0xbe599cfa	-0.21251288
23	0xbed2b306	-0.4115221
24	0x3d8f407a	0.0699472
25	0xbe18326a	-0.14862981
26	0x3e89b598	0.26896358
27	0xbe4b1cc9	-0.198352
28	0xbef36550	-0.47538233
29	0x3f133fde	0.5751933
30	0x3efee9ef	0.49787852
31	0x3f1cd347	0.61259884
32	0xbd1701b9	-0.036866877
33	0x3edccabb	0.4312342
34	0x3f284554	0.65730786
35	0x3f3e0f77	0.7424235
36	0xbe51170d	-0.2041895
37	0x3d12adb0	0.035810173
38	0x3eae543e	0.34048647
39	0xbe37a7e0	-0.17935133
40	0x3f077dad	0.5292614
41	0x3ecc3fa9	0.3989232
42	0xbe85158b	-0.25992998
43	0xbe1f4809	-0.15554823
44	0x3ef477b3	0.47747573
45	0xbe4af3e7	-0.19819604
46	0x3e9736d4	0.29534018
47	0xbd8e5a6a	-0.06950839
48	0x3f3ed13f	0.74538034
49	0x3f0632d6	0.5242132
50	0x3f1c1379	0.6096721
51	0x3eaf3946	0.34223384
52	0x3f364cbf	0.71210855
53	0x3eda149a	0.42593843
54	0x3f2d0fb5	0.6760209
55	0xbdbddfa3	-0.09271171
56	0x3e184575	0.14870246
57	0x3f32f577	0.699058
58	0x3f237965	0.6385711
59	0x3ec059df	0.37568566
60	0x3f3dabeb	0.7409045
61	0x3f07f740	0.5311165
62	0xbe3252c8	-0.17414391
63	0x3f169728	0.58824396
64	0x3f1a8044	0.6035197
65	0x3eef43db	0.46731457
66	0x3ecedaf7	0.40401432
67	0xbd9e0bc7	-0.0771709
68	0x3eef1be6	0.46700972
69	0xbe2affdd	-0.16699167
70	0xbe941d8c	-0.28928792
71	0x3f0d4213	0.55178946
72	0x3cb67a37	0.022275073
73	0x3f24e4aa	0.64411414
74	0x3eaa3ad2	0.33248
75	0x3eea97b1	0.45818856
76	0xbe91ffe5	-0.28515545
77	0x3f4bf6e8	0.79673624
78	0xbe7f97b9	-0.24960221
79	0x3e968593	0.29398784
80	0x3ef85b8f	0.48507354
81	0x3f105a99	0.5638824
82	0x3f39f6fd	0.726425
83	0x3ec66dd5	0.3875567
84	0x3d617bf8	0.055049866
85	0x3ea9c86f	0.3316073
86	0xbe3fde43	-0.1873713
87	0x3f0212e8	0.508101
88	0x3e3a0202	0.18164828
89	0x3f18580f	0.59509367
90	0xbe86fe73	-0.26366004
91	0xbe08b13c	-0.1334886
92	0xbe00c4a7	-0.12575017
93	0xbe5cf62d	-0.21578284
94	0xbe3f5eae	-0.18688461
95	0xbd336b5d	-0.04380356
96	0x3f27ee1d	0.6559771
97	0x3f0b8054	0.5449269
98	0xbefcc010	-0.49365282
99	0x3f4df2c8	0.8044858
100	0x3f2938bc	0.66102195
101	0xbde3275c	-0.110914916
102	0x3eb06a07	0.34455892
103	0x3f2cbaa8	0.67472315
104	0x3f19462c	0.598727
105	0x3f5868b0	0.8453474
106	0x3ea9da24	0.3317424
107	0x3f11ab82	0.56902325
108	0x3f010a7c	0.5040662
109	0xbe32379b	-0.17404024
110	0xbef9dad2	-0.4879976
111	0xbe351643	-0.17684273
112	0xbe8c859f	-0.27445695
113	0x3f053675	0.5203622
114	0xbccd8544	-0.02508796
115	0x3f0f6c56	0.5602468
116	0x3f17da1a	0.5931717
117	0xbe2dd035	-0.16973956
118	0x3ed47d3f	0.41501805
119	0xbe2e2284	-0.17005354
120	0xbed5b4c3	-0.41739473
121	0xbe398696	-0.18117747
122	0x3e9519ae	0.29121155
123	0xbeac29c4	-0.33625615
124	0xbe0d7f8e	-0.1381819
125	0xbe431b33	-0.19053344
126	0xbe09296a	-0.13394704
127	0x3efb31d9	0.49061468
128	0xbec70e5e	-0.3887815
129	0x3daaf0b5	0.083466925
130	0x3efdf938	0.496042
131	0x3efc96e3	0.49333867
132	0xbe535056	-0.20636114
133	0x3f4b58f9	0.79432636
134	0x3f2b81dd	0.6699503
135	0xbe0ffeb7	-0.1406201
136	0x3f2c20f6	0.67237794
137	0xbdfab6dd	-0.1224191
138	0xbcd45e3f	-0.025923846
139	0x3ee87d00	0.45407867
140	0x3e8326ef	0.2561564
141	0xbebc9b61	-0.36837295
142	0x3ee51853	0.4474512
143	0xbedd0a15	-0.43171754
144	0x3ec0d0ca	0.37659293
145	0x3f0c7d3a	0.5487858
146	0x3ea2c912	0.3179403
147	0x3f404d12	0.751176
148	0x3eea4da3	0.45762357
149	0x3f4f85a8	0.8106332
150	0x3f2d05b9	0.6758686
151	0xbe88291e	-0.2659387
152	0x3e94e7ae	0.29083008
153	0xbe5bc1b4	-0.2146061
154	0x3ebad0e3	0.36487493
155	0x3deec603	0.116588615
156	0x3f282ba7	0.6569161
157	0xbe552322	-0.20814183
158	0x3f28e6a7	0.6597695
159	0xbd8a686a	-0.06758197
160	0xbe813b81	-0.2524071
161	0x3f2cb8d0	0.674695
162	0x3ed00362	0.4062758
163	0x3f00840e	0.502015
164	0x3f03d3a6	0.51494825
165	0xbea3559f	-0.3190126
166	0xbe8cf7ad	-0.27532712
167	0x3e9991c6	0.2999403
168	0x3f34a243	0.7056009
169	0x3ed5bef0	0.41747236
170	0x3ebbf79a	0.36712343
171	0xbe719b47	-0.2359439
172	0xbeabbb67	-0.33541414
173	0x3f09f7ea	0.5389391
174	0x3e985084	0.2974893
175	0x3e28f0aa	0.16498056
176	0xbe1a3ac6	-0.15061483
177	0x3f56ef4b	0.8395888
178	0x3e51cae6	0.20487556
179	0x3dea8d1c	0.11452696
180	0xbe8b52c3	-0.2721158
181	0x3f2ed194	0.6828854
182	0x3ec40ce1	0.38291076
183	0x3f2473d9	0.6423927
184	0x3e65dbc9	0.22447123
185	0x3eee1ef4	0.4650799
186	0x3f0fe55f	0.5620937
187	0x3d42cd47	0.04755905
188	0xbda7c856	-0.08192508
189	0x3ee03a79	0.4379461
190	0xbea64c76	-0.3248021
191	0x3f2ca4ee	0.6743916
192	0x3f620e0a	0.8830267
193	0x3eb11697	0.34587547
194	0xbebe45a6	-0.37162513
195	0x3ed02c0e	0.4065861
196	0x3f0f30fd	0.55934125
197	0xbeaf8a5c	-0.34285247
198	0x3e8f7353	0.28017673
199	0x3f0a03b6	0.5391191
200	0x3f4d30dc	0.8015268
201	0x3ea72ca0	0.32651234
202	0x3e402137	0.1876267
203	0x3f17495f	0.5909633
204	0x3f1257e7	0.5716538
205	0x3dcdb482	0.10044195
206	0x3ea59696	0.3234145
207	0x3eb2ee24	0.34947312
208	0x3e9d649a	0.30740815
209	0x3f42b130	0.76051617
210	0xbe8e0192	-0.27735573
211	0x3f52051f	0.82039064
212	0x3f371087	0.71509594
213	0xbe525051	-0.20538451
214	0x3f469d31	0.77583605
215	0x3ef94bfb	0.4869078
216	0x3f2399b6	0.6390642
217	0x3f3605fb	0.71102875
218	0xbeb5ea1c	-0.35530174
219	0xbded50fa	-0.11587711
220	0x3ee5a3f2	0.44851643
221	0x3e0de6c9	0.13857569
222	0x3f31f9ce	0.69521797
223	0x3efd8395	0.49514452
224	0xbedcb09d	-0.43103495
225	0xbe6b037c	-0.22950548
226	0x3f05d2a2	0.52274525
227	0x3ebe71ea	0.37196285
228	0x3cdd23ff	0.026994703
229	0xbec93044	-0.39294636
230	0x3ea2c091	0.31787542
231	0x3f087b5f	0.5331325
232	0x3eeea1a7	0.46607706
233	0x3ef46c0a	0.47738677
234	0xbe77194f	-0.24130748
235	0xbedb844e	-0.42874378
236	0x3e8db891	0.27679875
237	0x3f4fe083	0.8120195
238	0x3edded05	0.43344894
239	0x3dad17a8	0.08451778
240	0x3f06073c	0.5235479
241	0x3cd414e0	0.02588886
242	0x3f235c96	0.6381315
243	0xbec743e1	-0.38918975
244	0x3ebd43e2	0.36965853
245	0x3eeeecec	0.46665132
246	0x3f4ab0af	0.7917585
247	0x3ed46d8d	0.4148983
248	0xbdefe337	-0.1171326
249	0x3e9964f5	0.29959837
250	0xbced57eb	-0.028972587
251	0xbe8d8a62	-0.2764464
252	0xbd8f95c5	-0.07010988
253	0x3e9610e4	0.29309762
254	0xbe6a6261	-0.22889091
255	0x3f3cb320	0.73710823

weight f4 [2, 256]
0	0xbe2bfb07	-0.16794978
1	0x3e49971e	0.19686553
2	0x3de7b4fd	0.11313818
3	0x3e1ebdec	0.15502137
4	0x3e7d60df	0.24743985
5	0xbd04f6f5	-0.03246208
6	0x3dddbe57	0.1082732
7	0x3e317532	0.17329863
8	0x3e718679	0.23586453
9	0x3e2fd356	0.17170462
10	0xbd4a394a	-0.04937104
11	0xbe67d212	-0.22638729
12	0x3e30063a	0.17189875
13	0x3cae92c0	0.02131021
14	0x3ce85253	0.028359568
15	0x3e6293ee	0.22126743
16	0x3d5fb467	0.054615404
17	0xbe69397d	-0.22775836
18	0x3e88a3d3	0.26687488
19	0x3e802335	0.2502686
20	0xbe19ace4	-0.15007359
21	0x3da99b22	0.08281542
22	0xbdaaa302	-0.083318725
23	0xbe6594d6	-0.22420058
24	0xbdb350d8	-0.08755654
25	0xbe5b2a56	-0.21402869
26	0x3def1d6e	0.11675535
27	0xbe5552b4	-0.2083233
28	0xbd1e383a	-0.03862784
29	0x3e7a424b	0.24439351
30	0x3e23b53e	0.15987107
31	0x3e017fe6	0.12646446
32	0xbe5b973b	-0.21444409
33	0x3c08c09f	0.008346706
34	0x3e01448d	0.12623806
35	0x3e294a4e	0.16532251
36	0xbe2ba52e	-0.1676223
37	0xbdb79f67	-0.089659505
38	0x3d9ee689	0.07758815
39	0xbe411dbe	-0.18859002
40	0x3e649ffb	0.22326653
41	0x3e6a6b3c	0.22892469
42	0xbe859ba2	-0.260953
43	0xbe8ab55b	-0.27091488
44	0x3dd0be2f	0.10192525
45	0x3df041d2	0.11731304
46	0x3e430d17	0.19047962
47	0xba884744	-0.0010397215
48	0x3de137f2	0.10996999
49	0x3e762751	0.24038436
50	0x3e5488e1	0.2075534
51	0x3e262254	0.16224033
52	0x3e5408a1	0.20706417
53	0x3cc978db	0.024593761
54	0x3e1630f2	0.14667109
55	0xbe6f0ac6	-0.23343953
56	0x3d2759ed	0.040857244
57	0x3e14b57b	0.14522354
58	0x3e167af8	0.14695346
59	0xbae64eaf	-0.0017571057
60	0x3e75b0ae	0.23993179
61	0x3e714afd	0.23563762
62	0xbe24d56f	-0.16097043
63	0x3e3daab1	0.18522145
64	0x3e978927	0.29596826
65	0x3e821fc0	0.25414848
66	0x3df02b74	0.11727038
67	0xbe8c258b	-0.27372393
68	0x3e0df655	0.138635
69	0x3e380ec6	0.17974386
70	0xbe86a5b9	-0.2629831
71	0x3e2bc5b4	0.16774637
72	0xbd98e229	-0.074650116
73	0x3e020de3	0.1270061
74	0x3dacfaa3	0.08446243
75	0x3df1e7d4	0.11811796
76	0x3e10324e	0.1408169
77	0x3e121d48	0.14268982
78	0xbdf4f190	-0.11960137
79	0x3d41e84b	0.047340672
80	0x3e75eeee	0.24016926
81	0x3e71b40c	0.23603839
82	0x3e88f626	0.26750296
83	0x3e51a555	0.20473225
84	0xbd7ae641	-0.061254743
85	0x3e501429	0.2032019
86	0xbe36270a	-0.1778833
87	0x3e677c2c	0.22605962
88	0x3e5ba65e	0.21450183
89	0x3e2cdb49	0.16880526
90	0xbe8de1d9	-0.2771137
91	0x3cf1c180	0.029511213
92	0xbe9c5e6a	-0.30540782
93	0xbe221857	-0.15829597
94	0xbe36d976	-0.17856392
95	0x3e7e4acc	0.2483322
96	0x3e59628a	0.21228996
97	0x3e278990	0.1636107
98	0x3b53ad13	0.0032299205
99	0x3e4dd737	0.20101629
100	0x3e57e214	0.21082336
101	0xbe027e09	-0.12743391
102	0x3e907e7c	0.282215
103	0x3e550078	0.2080096
104	0x3e57491c	0.21023983
105	0x3e83eaf5	0.25765195
106	0x3e199cdf	0.15001248
107	0x3dae9084	0.08523658
108	0x3e4a7672	0.19771746
109	0xbea2b6ce	-0.31780094
110	0xbb9d8270	-0.004806809
111	0x3e15cb50	0.14628339
112	0xbe253752	-0.16134384
113	0x3e5fc4b1	0.21852376
114	0xbdf03565	-0.11728934
115	0x3e5e1293	0.21686773
116	0x3e3dffea	0.18554655
117	0xbdedd1d9	-0.11612291
118	0x3e0369a6	0.1283327
119	0xbe5041db	-0.20337622
120	0x3df708af	0.12062203
121	0xbe8cdf5a	-0.27514154
122	0x3e555a4d	0.20835228
123	0x3d51bcea	0.051205553
124	0xbebbfbc2	-0.36715513
125	0xbeab375f	-0.33440682
126	0xbea63fb3	-0.32470474
127	0x3db7945f	0.089638464
128	0x3c14cd40	0.009082139
129	0xbde02635	-0.109447874
130	0x3e9215e8	0.28532338
131	0x3e221486	0.15828142
132	0xbe21adb4	-0.15788919
133	0x3e58d2c2	0.21174148
134	0x3e692307	0.22767268
135	0xbe3cd6fe	-0.18441388
136	0x3e00490f	0.1252787
137	0xbe42902a	-0.19000307
138	0xbdea3cae	-0.11437355
139	0x3ea51cb4	0.3224846
140	0x3e8f7c7c	0.28024662
141	0xbe22a214	-0.1588214
142	0x3e36cf32	0.17852476
143	0xbd5ab78a	-0.053397693
144	0x3ea6016a	0.32422954
145	0x3e67f8c7	0.22653495
146	0x3e16b54f	0.14717601
147	0x3e5d2160	0.21594763
148	0x3e8bfc3f	0.27340886
149	0x3e8d0182	0.27540213
150	0x3e3f401e	0.18676803
151	0xbdfc78ae	-0.12327705
152	0x3d3d86d5	0.046271164
153	0x3e3dffb7	0.18554579
154	0x3d8953aa	0.06705411
155	0x3d39deeb	0.045378607
156	0x3e2dbc31	0.1696632
157	0xbe17fe3b	-0.14843075
158	0x3e37bde7	0.17943536
159	0xbdde03a8	-0.10840541
160	0xbe0a0230	-0.13477397
161	0x3dd7cfcd	0.10537682
162	0x3e333d90	0.17503953
163	0x3dc28242	0.09497501
164	0x3e727ba5	0.23679979
165	0xbe51626a	-0.20447698
166	0xbe8630b4	-0.26209033
167	0x3e9fe3eb	0.31228575
168	0x3e349f61	0.17638923
169	0x3e8a76a2	0.27043635
170	0x3de93ae6	0.11388187
171	0xbe5e9432	-0.2173622
172	0x3e2657f9	0.16244496
173	0x3e70eed8	0.23528612
174	0x3e0ace22	0.13555196
175	0x3d4c9373	0.049945306
176	0xbe07eca8	-0.13273871
177	0x3e81ac08	0.25326562
178	0x3b532d80	0.0032223165
179	0x3bf640fc	0.007515071
180	0xbe7f1199	-0.24909057
181	0x3e064adb	0.13114493
182	0x3e0752ba	0.13215151
183	0x3e09738b	0.13422982
184	0xbc41cb34	-0.011828233
185	0x3e3ced08	0.18449795
186	0x3dd51585	0.10404495
187	0x3d1c2aee	0.03812688
188	0xbdceea99	-0.1010334
189	0x3e24b6a9	0.16085304
190	0x3e02e74b	0.12783544
191	0x3e3f4819	0.18679847
192	0x3e86385e	0.2621488
193	0x3e4b6bb0	0.19865298
194	0x3d82e9c8	0.063922465
195	0x3e4ef085	0.20208938
196	0x3e546193	0.20740347
197	0xbdc968f9	-0.09834475
198	0x3dfd51c4	0.12369111
199	0x3e8a9118	0.27063823
200	0x3e379388	0.17927372
201	0x3dc6be54	0.09704271
202	0x3dde3292	0.10849489
203	0x3e4ca70c	0.19985598
204	0x3e585cf1	0.21129204
205	0xbc541cbf	-0.012946307
206	0x3d1df961	0.038567904
207	0x3e60d6bc	0.21956915
208	0x3e78fcfc	0.24315256
209	0x3e7a90cc	0.24469298
210	0xbd6d0de8	-0.05787459
211	0x3e2a25d1	0.16615988
212	0x3e1c2c0e	0.1525118
213	0xbe7fe9f0	-0.24991584
214	0x3e8e8c4e	0.2784142
215	0x3e26c56e	0.16286251
216	0x3e8c3796	0.2738616
217	0x3d8b9206	0.06814961
218	0x3dd97b92	0.10619272
219	0xbe2a51f4	-0.16632825
220	0x3e7e5aff	0.248394
221	0xbc619bd7	-0.013770065
222	0x3e6ec2d0	0.23316503
223	0x3e49cb5d	0.19706483
224	0x3db91032	0.09036292
225	0xbe58ec99	-0.21184005
226	0x3e1fa9b3	0.15592079
227	0x3e117484	0.14204603
228	0x3e1fd4f4	0.15608579
229	0x3c9a4a0e	0.01883414
230	0x3db1447a	0.08655639
231	0x3e0f65ff	0.14003752
232	0x3e38fb05	0.18064506
233	0x3db61f7d	0.08892725
234	0xbe17a838	-0.14810264
235	0xbb27ef60	-0.0025624856
236	0x3de608a5	0.112321176
237	0x3e966fa5	0.29382053
238	0x3e130697	0.14357983
239	0x3d76b41e	0.060230367
240	0x3e7d790e	0.2475321
241	0xbddd8e03	-0.10818102
242	0x3e3e0249	0.18555559
243	0xbd901bf9	-0.07036585
244	0x3e54db56	0.20786795
245	0x3e949879	0.29022577
246	0x3e30ba29	0.17258514
247	0x3e8b2e48	0.27183747
248	0xbe29b837	-0.16574179
249	0x3df9bc25	0.12194089
250	0xbe95d7d3	-0.29266223
251	0xbe108283	-0.14112286
252	0xbdd4f34c	-0.10397968
253	0x3ca0d1ec	0.019631349
254	0xbd877d0d	-0.066156484
255	0x3e4112ab	0.18854778

bias f4 [2]
0	0x3e0ce47c	0.13759035
1	0x3e6c8baf	0.2310016
